demo/weights/atrousconv4_3_bias_0.npy (npy, 1104 bytes, 1 tensors)

array f4 [256]
000000 eb bb 69 bb c9 e3 96 bc be a2 cb 3c 91 1f d8 3c
       -0.0035664986 -0.018419163 0.024857875 0.02638224
000010 85 3d 48 3b ff a3 49 bd da c4 26 bd 7a b2 95 3c
       0.0030554247 -0.049228664 -0.040715076 0.01827358
000020 e9 44 9c 3b 0c e4 09 3b 0a f1 db bc 92 3d 5f bd
       0.004768957 0.0021040468 -0.026848335 -0.054502077
000030 91 c7 0d 3c f8 db ab 3b 54 a7 19 bd 73 7e 08 3c
       0.008653537 0.005244728 -0.037513092 0.008330929
000040 5a 97 69 3c a7 e1 b2 3c 06 4c c6 bc f9 b0 f0 3b
       0.014257276 0.021836115 -0.024206173 0.0073453155
000050 63 e3 0f bd 67 05 72 3c 88 6b 5b 3c 46 3c f0 ba
       -0.035128962 0.014771796 0.013392337 -0.001832851
000060 52 5f 2f bc f2 70 bc 3b 37 d2 18 bd 3b e7 22 bd
       -0.0107038785 0.005750769 -0.03730985 -0.0397713
000070 f5 8f 88 bc c4 57 5b 3c 16 99 37 3c d1 75 86 bc
       -0.016670207 0.013387624 0.011205932 -0.016413601
000080 fd a0 62 bc e1 fd 1e 3d eb c9 91 3c a7 c2 65 bc
       -0.013832328 0.038816337 0.017796477 -0.0140234595
000090 20 95 d8 bc f2 5e ab 3c 96 73 fb bb 14 1e 84 bc
       -0.026438296 0.020919297 -0.007673691 -0.016127624
0000a0 c8 be a7 3a bb 0e 05 3d 9e c3 c0 ba ca d9 c4 3c
       0.0012797946 0.03248475 -0.0014706736 0.024029631
0000b0 37 62 60 3c 61 55 07 3b 4b 86 c2 bc 1d 57 ec 3b
       0.013695291 0.0020650255 -0.023745677 0.007212533
0000c0 e5 24 c7 3b 99 aa 91 3a b2 a6 ee ba e0 c8 86 bb
       0.006077396 0.0011113464 -0.0018207638 -0.0041133016
0000d0 16 3c c6 bc cb ac 37 bb fe 6c 96 bb d6 ee ac 3b
       -0.024198573 -0.0028026577 -0.0045906296 0.005277495
0000e0 e8 b9 f1 bb 68 8f 64 3b f7 e8 70 3c 8a 95 11 ba
       -0.007376898 0.0034875516 0.014703981 -0.0005553594
0000f0 b6 b4 bd bc db 5e 57 3c d2 9f c1 3c 09 88 be 3b
       -0.023157459 0.013145174 0.023635779 0.0058145565
000100 f1 57 7a 3d 6c b1 8a bb 60 eb a0 bc 3f 43 82 3c
       0.061119024 -0.004232576 -0.019643486 0.015901206
000110 87 b5 78 3b c3 f0 64 bb 92 17 8e 3a 2f 95 94 3c
       0.0037949996 -0.0034933544 0.0010840765 0.018137543
000120 09 a2 bd 3c 23 a0 3f bd e8 ce eb bb 49 a9 33 bc
       0.023148553 -0.046783578 -0.007196296 -0.010965654
000130 69 ae 12 bc ea 1d f5 3b 2c 8e 80 3c 7b 7e 0d 3d
       -0.008952715 0.0074803727 0.015692793 0.03454445
000140 ad 08 ce 3c 05 89 a1 bb b5 d9 03 bc 84 a4 6e ba
       0.025150621 -0.004929664 -0.008047511 -0.0009103494
000150 7b cf 4e 3c 07 cf b8 bc e7 55 4f bc aa e4 7a 3c
       0.012622709 -0.022559656 -0.012654758 0.015313307
000160 cc 66 23 bc 0e ad 0f 3d aa 17 21 bc 81 92 89 3c
       -0.009973239 0.035077147 -0.009832302 0.016793491
000170 23 1c eb 3c a0 fb 3c b9 dd 82 53 3c e3 ae 0d bc
       0.02869994 -0.00018022815 0.012909618 -0.008647653
000180 26 12 00 bc f4 a2 5e bc 8e 2e 58 bc ff c0 4b bc
       -0.007816827 -0.013588656 -0.013194693 -0.012436151
000190 b8 d9 aa 3b 7c d4 cc bb 02 50 77 bb fb 79 f0 bc
       0.0052139424 -0.006250916 -0.0037736897 -0.02935504
0001a0 72 d6 9c bb bd 6e a3 3c ea 7a c6 3a c6 8b 4d 3c
       -0.004786306 0.019950265 0.0015142832 0.012545532
0001b0 47 7a 5b 3c 89 99 a4 bc b0 55 19 3d e5 72 b0 bd
       0.013395852 -0.020092743 0.037435234 -0.086156644
0001c0 ed 77 4f 3d 08 68 10 3d d6 91 0b bc 0e 29 31 bd
       0.05065148 0.035255462 -0.008518657 -0.043252043
0001d0 a8 9b 1e bc 18 d9 87 ba 84 dc 46 39 11 ef 94 bc
       -0.009680666 -0.0010364382 0.000189649 -0.018180402
0001e0 18 e7 73 bc 93 1f 0e bc 28 29 15 3c e6 3e f6 bc
       -0.01488664 -0.00867452 0.009104051 -0.03005929
0001f0 3d 6d 2e 3c 86 af 67 bc b2 99 a5 bc 6b b6 6d b9
       0.010646162 -0.014140969 -0.02021489 -0.00022670037
000200 62 53 70 3c fb 86 d5 bc 54 af d0 bc b3 ce 84 3a
       0.0146683175 -0.02606534 -0.025474228 0.0010132402
000210 67 b4 d5 bb 6f 7b fc 3c 2b b4 97 3b 56 99 86 3c
       -0.00652175 0.030820576 0.004629632 0.016430538
000220 d0 4f df bb 03 f0 9f 3c 3c 7c 16 bc 31 eb d0 bc
       -0.0068149343 0.019523626 -0.009184893 -0.025502773
000230 8f de 98 3c b1 a4 58 3a af d8 f1 bc 6d 26 b3 3b
       0.018660812 0.0008264287 -0.029522268 0.005467227
000240 2b 65 c2 bb 61 67 72 bb ce d1 94 bc a2 83 26 3c
       -0.0059324703 -0.0036987888 -0.018166449 0.01016322
000250 06 00 ab 3b da 1c ff bb 47 41 ae 3b dd e8 c0 3c
       0.0052185087 -0.007785422 0.0053178403 0.023548538
000260 29 f8 74 bb 06 49 86 bc f8 72 1d 3d f9 4e 9a 3b
       -0.003737936 -0.016392242 0.03843972 0.0047091213
000270 64 b3 d5 bb 60 cb 2b 3d 4b 32 a9 bc 42 43 7e 3b
       -0.006521629 0.041942 -0.020653864 0.0038797413
000280 12 10 5c bc 30 df 64 3c 33 28 14 3c 57 a8 52 3c
       -0.013431566 0.013969228 0.009042787 0.012857518
000290 0d 42 31 3c cd d2 0d bc bb dc dd bc a1 2e aa 3c
       0.01081897 -0.008656216 -0.027082792 0.020774188
0002a0 75 35 71 bc b0 bd 81 3d 9b 69 9e bc 1e d7 ce 3b
       -0.014722218 0.06335008 -0.019337466 0.006312265
0002b0 62 e2 a5 3c 4b 17 68 bc 87 68 02 3b 74 e7 4f 3c
       0.02024955 -0.01416571 0.001989873 0.01268946
0002c0 d4 ad 9e bb 04 cd 34 3b 81 7d 20 bc 04 3c 61 3c
       -0.0048424993 0.002758802 -0.009795547 0.013747219
0002d0 86 00 ad 3b b5 ec b0 bc b4 fc ec 3b 41 b1 ff 3c
       0.0052796034 -0.021597246 0.007232273 0.031212451
0002e0 be 50 61 3d 73 f1 a6 3c 6f 3e 7b 3c 44 4f be bb
       0.055008642 0.020378804 0.01533471 -0.005807789
0002f0 1a 9e a7 bb f7 01 52 3c a1 b9 e3 3c 98 6f 12 bd
       -0.0051152827 0.012817851 0.027798476 -0.035750955
000300 3d ca 65 bd 40 0e c1 3c bf 2e 5c 3c 28 61 3a bd
       -0.056101073 0.023566365 0.0134388795 -0.04550281
000310 1a d2 0a 3c ae 27 2e bc fc 3e 81 3b ae bf 59 3a
       0.008472944 -0.010629578 0.003944276 0.00083064556
000320 c9 6a 0f 3b 2d 94 e5 3b 7c b0 76 3d c2 31 98 3d
       0.0021883717 0.0070061893 0.060226902 0.074313655
000330 02 6d a1 bc 28 fa 43 3c 06 84 36 bc 24 b2 6d 3b
       -0.0197053 0.011961497 -0.011139875 0.003626951
000340 ab 58 36 3d 91 d0 0f 3c 7e db 69 bc a9 e2 30 bc
       0.044518154 0.008777753 -0.014273522 -0.0107962275
000350 ef ae 08 3c cd a5 cc 3d 23 bc 59 3c 49 ac a0 bc
       0.008342489 0.099925615 0.013289484 -0.019613402
000360 51 a0 3c 3c c7 4c 10 3c 03 3f 22 3c 6c 16 a4 3c
       0.011512832 0.008807368 0.0099027185 0.020030223
000370 bc ca a0 ba 32 4c 45 3c 06 97 d4 bb 38 84 78 3b
       -0.0012267451 0.012042092 -0.00648773 0.0037920605
000380 9e 64 43 bc d6 87 1b bc 0f d9 22 3c 9b 06 6c b9
       -0.0119258445 -0.009492835 0.009939446 -0.00022509175
000390 95 cd 0a 3c b1 22 30 3a 98 a1 1c bc 76 66 39 3b
       0.008471866 0.00067190366 -0.009560011 0.0028289831
0003a0 a3 49 7e ba df 42 2b bd c7 eb b9 3c ce 69 a2 bb
       -0.0009700304 -0.04181182 0.022695435 -0.0049564606
0003b0 5a af 24 bc e8 7d 2b 3d b0 bd 2b bc 6b d0 fa bb
       -0.010051573 0.04186812 -0.010482237 -0.00765424
0003c0 35 7f 91 bb 78 a7 eb 3c de 0c 0c 3a 33 48 8b 3b
       -0.004440213 0.028766379 0.00053424935 0.00425055
0003d0 da ef e3 bb 52 a6 ab bc fa ca 6b bb 59 b0 d0 bc
       -0.006956083 -0.020953331 -0.0035979138 -0.025474714
0003e0 43 d1 1c bd d7 20 86 3b 55 15 84 3c 9e 72 2a bd
       -0.038285505 0.0040932703 0.016123453 -0.041613214
0003f0 62 31 61 bc 5e 1a 4f 3d 2c 4e 5d bd 40 00 7f bb
       -0.013744684 0.050562255 -0.05402963 -0.003891006
