demo/weights/atrousconv4_2_bias_0.npy (npy, 1104 bytes, 1 tensors)

array f4 [256]
00000000: 8f83 2ebc eb3f 833c 3952 ef3c 9a5a 473c
00000010: 79b6 79bc fed7 173c 1416 5c3c 0cf4 a33a
00000020: b4a9 d03c 0827 ac3c c18e 0dba 2a9e 333c
00000030: 00cc 993b dd66 423d ef87 d0bb cd6a a7bb
00000040: f167 96bc 78f5 96bc bf01 fa3c 52ae b8bb
00000050: 4ca6 443c 72f7 1d3b 95a3 b83c 634c 353d
00000060: f430 bcbc b87e 553c f876 85bc 467a 0ebc
00000070: 8183 9d3c 15d5 e8ba 231d 003d d4ea 5cbb
00000080: 87b6 25bd e4ef 9a3b 8ed3 04bb 55c6 f0bc
00000090: 9666 503b b67a 253d 9f8b 2e3d bff0 bb3c
000000a0: 21e8 d7bc 77bc 693b de18 efbb 3183 f3bc
000000b0: 5fe7 5cbc d7fc 4c3b efe9 62bc 67ce e13c
000000c0: 5eb7 ceb7 df28 e83c 88f9 eebb dcec 643c
000000d0: 67ee ae3b f81b be3c 0045 c5bc 42ac cb39
000000e0: 9ee2 7f3c 0ee5 5a3c f701 0fbb 2785 06bc
000000f0: 67be 103c 3340 5f3c 4d4b dcbc 4170 d83b
00000100: 486b 50bc 1c45 993c 5ee5 943b e5c4 d1ba
00000110: 92fa 843c 5c75 2d3b a537 b3bc 00c1 b6ba
00000120: 384e 5e3c 5dc2 05bd 8c0c d23c 3a81 26bc
00000130: cb12 0a3d a32f 073c 11d1 26ba bc88 e7bc
00000140: ef1c ecbb 3b9b a2bc 2b70 cebb 04db 94bc
00000150: dea9 833c e6bc 983c e896 1b3d e61e 763c
00000160: c87c 003d bac3 c3bb 2ff8 313c 2c7b 9f3c
00000170: 759c 193d ba7d 433d 0cc1 ff3a f802 883c
00000180: 1f53 913b f056 0dbb 5d2e cbbc c6b0 773a
00000190: 088c 9ebc b831 103c bdac ea3b 16d6 8d3c
000001a0: 8109 dd3c d605 c63c f367 073d 317d c73b
000001b0: e5dc 8bbc 8eff 37bc 5bae 043d 7085 2d3c
000001c0: 097b f2bb 4120 303c 935f 57bd c39d a0bc
000001d0: ac34 0b3c 531f 0fbd 4afa 233b bc5a 9d3b
000001e0: ab82 483b fdaf 883b efaf dd3c 7409 26bc
000001f0: 18ea 9e3b d5c2 603d 066f 143c 5b5d 62bc
00000200: feeb 6bbd 156b d6bb 8e90 cf3a 2576 693c
00000210: 044f 473c 8f64 62b9 d094 a4bc 00d9 b5bc
00000220: f3df 27bc 8e77 87bb 7276 833b 8e79 d23b
00000230: c00f 133c aad7 01bc 9bce 70bc 4265 16bb
00000240: 74af 1fbc 88a1 1dbd e256 93bc 5f3b 1ebc
00000250: cfb0 80bb 7d61 18bc 3a2c 3f3c af68 e6bc
00000260: b6c3 19bd e583 5fbc e80d 46bc a028 22bb
00000270: 8b4c 053d 1c30 443d 07d5 3f3d 8459 b63c
00000280: 9dbc a9bc 22c7 49bc a0c3 cfbc 9c1f cdbb
00000290: e8f7 553d 2948 873b faa4 30ba 473c 183c
000002a0: c7fa ca3c a2d4 63bc 9423 8cbc f43a 70bc
000002b0: 7038 2d3d 7027 63bb dcb8 e2bb 629d 533b
000002c0: e32f ec3c ac3e afbb e994 cfbc 721a 1c39
000002d0: 8638 5d3c a336 a5bc 383a 413c 7fce 9abc
000002e0: 778a 03bc f839 7a3c e802 83bc 8bbd dc3b
000002f0: 6d7e 0cbc 004d 3f3b c000 223c 7bfd 0bbd
00000300: 0f12 a8bb c354 463d 7b59 d93c 6ec7 39bc
00000310: a579 3dbc 262b 5dbb 69c1 0a3c 0a9a 0fbd
00000320: 8ab5 7c3c 60ec 993c b506 ed3a 35d6 38bb
00000330: 2e76 9bbb 3073 2fbc 44e2 ab3a f9aa 0dbb
00000340: 576f 0ebd 3c0c 75bc 0cd3 383d 079f a03c
00000350: 560d 97bc 54ff 38bb ac65 183d 23c3 023c
00000360: 6067 4c3c 7042 803b cf8a 9a3c d59e 883c
00000370: c6bb c83c 1112 0a3c d891 16ba 1eb6 3bbc
00000380: e1cf 8d3c b7b7 2bbc 10e9 4f3c 8665 033d
00000390: 3559 0f3b 7933 99b9 a34f 303c 8b73 27bc
000003a0: d18c 263d a30b a1bc b37f 143c a0a7 42bc
000003b0: 716b b7bb 121a bf3c b791 513a 4118 123d
000003c0: 8921 583c 99c4 e43b 5f10 84bc f824 d03c
000003d0: 7068 8d3c ae67 87ba 6f48 97bc 17bd 0fbd
000003e0: 0695 11bc 4545 10bb 2dc4 ad3c 61fe a3ba
000003f0: 79a5 afbc 27f1 b9ba 9c04 b73c 389b 973c
-0.010651483 0.01602169 0.029214012 0.012167597 -0.015241259 0.009267805 0.013432998 0.0012508645
0.025471546 0.021014705 -0.0005399995 0.010963002 0.004693508 0.04746138 -0.006363861 -0.005109167
-0.01836011 -0.018427595 0.03051841 -0.005636015 0.012002539 0.0024103788 0.02253894 0.0442623
-0.022972561 0.0130307 -0.01629208 -0.008696144 0.019227745 -0.0017763699 0.031277787 -0.0033709304
-0.040457275 0.004728304 -0.0020267698 -0.029391447 0.0031799427 0.04040023 0.04261362 0.022941945
-0.026355805 0.0035665312 -0.0072966656 -0.029725643 -0.013482898 0.0031278634 -0.013849719 0.02756424
-2.46425e-05 0.028339801 -0.00729293 0.013972487 0.0053384784 0.023206696 -0.024080753 0.0003884752
0.015617995 0.013360275 -0.002182124 -0.008210457 0.008834458 0.013626146 -0.026891375 0.0066051786
-0.01272089 0.018709712 0.0045439443 -0.0016004114 0.016232762 0.0026467657 -0.02187712 -0.0013943017
0.0135684535 -0.032656062 0.025640748 -0.010162646 0.03370933 0.008251104 -0.0006363551 -0.028263442
-0.0072055976 -0.01984941 -0.0062999926 -0.018170841 0.01607221 0.018644761 0.037985712 0.015022015
0.031369 -0.00597426 0.010862394 0.019467913 0.037502725 0.047727324 0.0019512489 0.016602978
0.0044349576 -0.0021566711 -0.024802381 0.00094486435 -0.019353881 0.008800916 0.0071617053 0.017313998
0.02698207 0.024172705 0.033058118 0.006087922 -0.017073104 -0.011230363 0.03239284 0.010590896
-0.007399921 0.010749877 -0.05258138 -0.019606477 0.008496445 -0.034941982 0.002502101 0.004802076
0.0030595462 0.00417137 0.02706143 -0.01013409 0.0048496835 0.054873306 0.009059673 -0.013816203
-0.057598107 -0.006543527 0.0015835927 0.014249359 0.012164835 -0.000215905 -0.02009049 -0.0221982
-0.010246265 -0.004134125 0.0040119225 0.006423182 0.008975923 -0.0079249535 -0.014697696 -0.0022948538
-0.009746421 -0.038484126 -0.017985765 -0.00965771 -0.003927327 -0.009300587 0.011668259 -0.028126089
-0.03754016 -0.013642286 -0.012088276 -0.0024743453 0.0325437 0.047897443 0.046834018 0.022259481
-0.02071982 -0.012315543 -0.025361836 -0.0062598716 0.052238375 0.004128475 -0.00067384506 0.009291715
0.024777783 -0.013905676 -0.017106809 -0.014662493 0.04229015 -0.0034660958 -0.0069190096 0.0032289852
0.028831428 -0.0053480472 -0.02533956 0.00014887171 0.013502246 -0.020167654 0.011793666 -0.018897293
-0.008028618 0.01527261 -0.015992597 0.0067364625 -0.008575064 0.0029190183 0.009887874 -0.034177285
-0.005129106 0.04842068 0.026531925 -0.011339052 -0.011564647 -0.0033747642 0.008468964 -0.035059012
0.015424142 0.01878947 0.0018083664 -0.002820385 -0.0047443127 -0.010708615 0.0013113697 -0.00216168
-0.03477415 -0.01495653 0.045123145 0.01960708 -0.018438976 -0.002822836 0.037206337 0.0079810945
0.012475818 0.00391417 0.018865017 0.0166773 0.0245036 0.008427159 -0.00057437783 -0.011456994
0.017311038 -0.010480813 0.012689844 0.032079242 0.002187324 -0.00029220784 0.010761174 -0.010220419
0.040661637 -0.01965887 0.009063649 -0.011880785 -0.005597525 0.023327861 0.00079944305 0.03566766
0.013191589 0.006981444 -0.016121088 0.025408253 0.017261714 -0.0010330582 -0.018467156 -0.03509244
-0.008885628 -0.0022013944 0.021211708 -0.0012511724 -0.021441208 -0.0014186249 0.022341065 0.018506631
