demo/weights/conv3_2_bias_0.npy (npy, 1104 bytes, 1 tensors)

array f4 [256]
000000 58 0f a0 bc fe df 39 3b 3f 92 ef bc 0e d8 36 3b
       -0.019538566 0.002836227 -0.02924454 0.0027899775
000010 3c 0f aa 3d 23 d9 8e 3c 09 4e 9b 3d 84 50 f7 3c
       0.08303687 0.017437523 0.075832434 0.03018976
000020 f8 86 4b 3b 09 d5 2c bd dd c3 a4 3b 7d 8c 50 bb
       0.003105579 -0.042195354 0.0050282315 -0.0031822019
000030 7e 91 e2 bb 37 6b 27 3d fc 15 e6 3c 4c 3c 1f 3d
       -0.0069143167 0.040873732 0.028086655 0.038875863
000040 90 42 2b bc 36 45 93 bd 13 e6 a5 bc 9e 38 24 ba
       -0.010452881 -0.07190935 -0.02025131 -0.000626454
000050 ee 7d b6 3c 1e 3b ad 3d aa 96 d9 3c ae bf f5 bc
       0.022276845 0.08458541 0.0265611 -0.029998627
000060 c1 e9 7f 3c 7d 21 eb bc 3a a1 9a 3d 74 f4 54 3d
       0.015619696 -0.028702492 0.07550283 0.05199094
000070 d5 06 24 3d 49 ba 9f 3d ee 63 1f 3d 49 40 83 3c
       0.040045578 0.07799203 0.03891366 0.016021864
000080 1d c4 a0 bd c5 ea 32 3c d2 59 1d bc b2 14 24 3d
       -0.07849906 0.010920231 -0.009603934 0.0400588
000090 65 53 f5 3c 18 32 65 bd e7 e8 ae 3d ad a5 dd 3c
       0.029946992 -0.055955976 0.08540516 0.02705654
0000a0 d7 87 72 3c 1e a2 64 3c 4e 9a 92 bd 17 f4 ac bc
       0.014802895 0.013954667 -0.071583375 -0.021112485
0000b0 d7 d8 38 bd 1f e6 1a 3d 4a fb fc bc b5 cf d3 3d
       -0.04512867 0.037817117 -0.030881543 0.10342351
0000c0 c3 03 5d 3d 78 50 7a bc 38 ba d3 3b b0 73 96 3d
       0.053958666 -0.015277974 0.006461408 0.073462844
0000d0 16 ec e8 3c eb 2f d6 bd 4d cb 0f 3d ee 4a 9d 3d
       0.028432887 -0.104583584 0.035105992 0.07680307
0000e0 63 a4 31 bd 95 6b 98 3a 64 cd bb 3b cc 80 bc 3d
       -0.043369662 0.0011628742 0.0057312716 0.092042536
0000f0 c1 39 16 bd 03 76 26 3c 31 14 b2 3d 1e e0 77 3c
       -0.036676172 0.010159972 0.086952575 0.015129117
000100 3c 10 5f 3c 19 26 b8 bb f7 0c 93 3d 2b d0 08 3d
       0.01361471 -0.005619776 0.07180207 0.03340165
000110 f3 5d 2d bb 35 e8 70 3d 4f 52 84 bd fb 19 46 bc
       -0.0026453703 0.0588152 -0.064610116 -0.012091155
000120 f8 c2 af bd d9 09 96 3c 59 a9 8a bb fa dc 89 bb
       -0.08582109 0.018315243 -0.0042316136 -0.0042072507
000130 0e 3e 64 3d 9b 88 e8 3c 56 2a 05 bd 6a 6d 46 bd
       0.055723242 0.028385451 -0.032511078 -0.04844419
000140 3b e5 6e 3d d7 0f cf bd d8 40 1e 3c fd 5d 40 3d
       0.05832408 -0.10110443 0.009659015 0.046964634
000150 01 1f cf 3b ee d4 94 3d 7d 61 a6 3c f1 21 1c 3d
       0.0063208346 0.072671756 0.020310158 0.038118307
000160 10 29 bd 3d 84 50 8c bc 58 9a 1f bd 25 87 a9 bc
       0.09236348 -0.017128237 -0.038965553 -0.020694325
000170 bf c1 8b bd 43 eb d9 3b e2 3d fb 3c bf bd eb bc
       -0.068240635 0.00665036 0.030669156 -0.028777001
000180 97 30 fa bc f1 5c 9a bb e4 91 c1 bc 4c 13 c0 3d
       -0.030540748 -0.0047107865 -0.023629136 0.093786806
000190 df 55 ad bc 57 46 db 3c 3c 12 94 bc 78 a2 b8 bd
       -0.02115911 0.02676694 -0.018075101 -0.090153635
0001a0 a6 b1 98 bd 4e 5e e9 3a 75 fd 9d bb 3b 42 4f 3c
       -0.07455759 0.0017804594 -0.004821474 0.012650068
0001b0 bc d6 81 3d 52 eb 61 bb 76 b5 b1 3c d2 d3 12 3d
       0.063397855 -0.0034472537 0.021692973 0.03584654
0001c0 12 8c e0 bb b8 ec 24 bc fc fa 98 3b bd 7f 36 3d
       -0.006852635 -0.010066204 0.0046685915 0.044555414
0001d0 17 ed 35 bc ef 10 41 3d 26 c4 af 3b d6 a2 06 bd
       -0.01110389 0.04713529 0.005363959 -0.032870136
0001e0 e2 4d 17 bc d3 31 8a bc 98 ad cb 3a e0 ba 5c 3c
       -0.009234877 -0.016869461 0.0015539406 0.013472289
0001f0 ff ca a4 3a 47 fd ee 3c 9e 5d d4 bb cf f9 b9 bc
       0.0012572705 0.029173506 -0.0064808866 -0.022702126
000200 93 d0 15 3d 3e 13 5d bd e2 ae 9e 3c 4a bf e6 bc
       0.036575865 -0.05397343 0.0193705 -0.028167386
000210 65 08 4d 3d 12 8f 6e bc 53 a6 a7 3c 7f 2b 40 3d
       0.050056834 -0.014560478 0.020465052 0.04691648
000220 73 e1 5b bb 38 a8 88 ba 15 6e 8e 3c e5 c9 9d 3b
       -0.0033551126 -0.001042611 0.017386476 0.0048153275
000230 e3 76 12 bb 55 91 db bd 81 b7 ae bd 00 a6 38 bc
       -0.0022348694 -0.10721079 -0.08531094 -0.011270046
000240 be 53 15 bb c3 e6 07 3d 31 03 67 bd 2c 09 29 bc
       -0.002278551 0.033179056 -0.056399528 -0.010317128
000250 94 e2 e5 3d 3a 75 ff 3d 0b 22 09 3d 52 ea 6e 3b
       0.11224857 0.12473531 0.03347973 0.0036455584
000260 a8 6f 03 3d 4b 32 49 bd 36 d4 73 bd 71 9f b8 3a
       0.032088906 -0.04912023 -0.059528552 0.0014085603
000270 6c a9 b9 bc 82 91 5d bd 14 22 76 bc a6 b5 9f 3d
       -0.022663794 -0.054093845 -0.015022773 0.077983186
000280 a8 66 08 3d 96 52 68 bc de d1 28 bd 5b c6 06 3e
       0.033301026 -0.014179846 -0.04121577 0.13161604
000290 6a cf 74 bb d9 9a 21 bd f1 fa 3b 3d e0 46 0a 3d
       -0.0037355074 -0.039454315 0.045893613 0.033758998
0002a0 15 31 4f bc 15 42 8e 3c 4c ed bf 3c ae e2 18 3d
       -0.012645979 0.017365495 0.023428582 0.037325554
0002b0 a8 92 77 3c 98 00 02 3d 2b 29 15 bd 8d 16 37 3b
       0.015110649 0.031738847 -0.036416214 0.0027937025
0002c0 3a 42 6a 3d 56 da 91 3d 60 e2 fc 3c 48 9f 33 ba
       0.057192065 0.071217224 0.030869663 -0.0006852043
0002d0 58 4f 8d bb 56 67 ea 3b be 23 d6 3c a8 67 ce bc
       -0.004312437 0.007153432 0.02614009 -0.025195912
0002e0 94 26 99 bd 67 d4 00 3c 99 de 6c 3b 98 b1 31 bd
       -0.07478061 0.007863141 0.003614342 -0.043382257
0002f0 eb b6 03 bb f4 00 6a 3c ca d3 ee bc 43 f2 3a 3c
       -0.0020098041 0.014282454 -0.029153723 0.011410299
000300 1b 18 a7 bb 67 37 9f 3b e5 18 29 bc 1b 69 26 3c
       -0.005099309 0.0048588994 -0.010320877 0.010156895
000310 b0 99 61 3c 8f 16 19 bc 8c 95 23 3c f0 66 7a 3c
       0.013769552 -0.009343757 0.009984385 0.015283331
000320 8f 2a 2c 3b 8d cb eb 3b 4b 1c f4 bc 04 5e 53 bd
       0.0026270484 0.007195896 -0.029798647 -0.051603332
000330 4e 4b 29 be 21 79 93 3d f3 05 ef bb a6 38 12 3d
       -0.16532633 0.07200838 -0.0072944104 0.035698555
000340 66 1e 5c bd cb c7 83 3c 43 2a c0 bc c0 93 15 bd
       -0.053739928 0.01608648 -0.023457652 -0.03651786
000350 81 81 8b bc 4c 9f 27 bc 16 d4 99 3d b7 49 f6 bc
       -0.017029526 -0.01023085 0.07511155 -0.030064447
000360 3d b2 e3 bc 29 e7 29 3d 9f f7 14 bd 88 e9 10 bd
       -0.027794952 0.041480217 -0.036368962 -0.035378963
000370 a1 76 b0 bb 4e 49 64 3d 01 63 00 3d 97 05 2c 3c
       -0.0053852354 0.05573397 0.031344417 0.01049938
000380 85 37 1f bd bd 3a 0a bd ea bb ff bb ae 7a 61 bb
       -0.038871307 -0.033747423 -0.0078043835 -0.0034405398
000390 51 9e 9b 3d c0 03 10 3c 14 25 90 3b 23 a2 0a bd
       0.07598556 0.008789957 0.0043989513 -0.033846032
0003a0 14 75 4f 3c 06 75 e0 bc 17 91 7e bd 51 8e 0c bd
       0.012662191 -0.027399551 -0.062150087 -0.03431541
0003b0 ea 30 cb bd 7b 5f 13 bc f6 49 4f bc 0c 47 8d bc
       -0.09921439 -0.008994932 -0.012651911 -0.017245792
0003c0 1d b5 b9 bc 02 d7 9f bc 62 5a 26 bb c5 0b 27 bd
       -0.02266937 -0.019511703 -0.0025383462 -0.04078271
0003d0 23 bd 9b bc eb c4 81 bc 9c 3c 11 3d f2 56 dc 3c
       -0.019011086 -0.015840968 0.035458192 0.026896928
0003e0 96 bf 91 bd 10 e3 bc bb 2f 75 92 bd 6d e9 bf 3b
       -0.0711662 -0.0057643726 -0.07151257 0.005856684
0003f0 1d e6 0e bd 51 ed d8 3c b0 66 b7 3c 5d 4d 96 bc
       -0.034887422 0.026480349 0.022387832 -0.018347437
