demo/weights/convseg_1_1_kernel_0.npy (npy, 131168 bytes, 1 tensors)

array f4 [1, 1, 256, 128]
000000 10 74 ba bd bc 20 de bb 04 be 68 bd 07 58 21 3d
       -0.091041684 -0.0067788046 -0.056821838 0.03939059
000010 ba f8 a7 bb 34 f8 14 bc 39 b6 43 bd 30 42 dc bc
       -0.005126086 -0.009092379 -0.047781203 -0.02688703
000020 88 ff af 3c 93 a6 f1 3c d5 1c 28 bd 1a fe af 3c
       0.021484151 0.029498374 -0.04104312 0.02148347
000030 3c b8 97 bb 87 f1 7b bc 71 9f 8a 3c 54 cb 07 bd
       -0.0046301167 -0.015377409 0.01692173 -0.033152893
000040 50 c9 87 3c c3 cb df bb 89 65 32 3d aa 8e 2d bd
       0.016575485 -0.00682971 0.043553863 -0.042372383
000050 07 b5 f9 bc 60 12 6b 3d 3b 6c 87 bd 7d 6c 05 bd
       -0.030481828 0.05739057 -0.0661244 -0.032574166
000060 c4 dc 2b bb da 9a 2c bd e0 0e a3 bc 9a b6 66 bd
       -0.0026224116 -0.042139865 -0.019904554 -0.056326486
000070 67 79 51 bd 19 00 e1 ba fa ff 8a bc 19 15 9b bd
       -0.05114117 -0.0017166167 -0.016967762 -0.075723834
000080 a1 fd c9 bb a0 a1 c9 bc f9 a4 f0 bc 9f 43 89 bb
       -0.006164268 -0.024613202 -0.02937554 -0.0041889693
000090 86 fd f2 bc 71 4f 06 3d c7 5d 03 3d 4f 8b 3f bc
       -0.029661905 0.032790605 0.032071855 -0.011690929
0000a0 c6 53 b2 ba 56 8f 90 bc 7a f1 e1 bc 34 5a 4c 3d
       -0.0013605289 -0.017646473 -0.027580965 0.049890712
0000b0 54 ee 70 3d 15 89 3f bb 57 2e 6e bd 5d 6d 13 3d
       0.058821037 -0.0029225994 -0.058149662 0.03599297
0000c0 fd 0e 17 3d 4a 5e bf bd bc 33 34 3b c7 09 1c bb
       0.03687953 -0.09344156 0.0027496656 -0.0023809539
0000d0 4c a2 ba 3b 8c 8d 1e 3a a1 49 1e bd da 79 b1 3c
       0.005695617 0.0006048314 -0.038644437 0.021664549
0000e0 5b c1 bc bc 83 ba 8e 3c c1 0d bc bd 3b 96 0b bd
       -0.023041418 0.01742292 -0.09182311 -0.034078818
0000f0 5d 4a ab 3c 86 05 12 bc ba 26 b9 3d b8 f1 c7 bc
       0.020909483 -0.00891245 0.0904059 -0.024407253
000100 94 a4 0c 3d 33 e0 bc bd 3c 5f dc bc 92 16 86 bc
       0.03433664 -0.0922245 -0.02690088 -0.016368184
000110 83 91 f4 3b 14 8a 09 3d 83 da a8 bc 05 b9 65 bd
       0.0074636354 0.033578947 -0.020612007 -0.05608465
000120 e7 9e 13 bc e2 ca 7f bd d3 f1 96 bc ab b0 8f 3d
       -0.009010053 -0.062449344 -0.018425858 0.070161186
000130 c6 42 33 3c 52 50 e0 3c 93 29 e8 bb 4c 1b 5c bc
       0.010941213 0.02738205 -0.007085034 -0.013434242
000140 63 12 83 b0 d0 96 82 bd e8 08 05 3c b1 3e 22 3b
       -9.53673e-10 -0.063764215 0.008119799 0.0024756605
000150 32 61 f2 bc db 04 c5 bc 23 f4 98 3a 42 47 58 bd
       -0.029587362 -0.024050167 0.0011669438 -0.05280233
000160 9c c4 1a 3d 6a b7 7d bd c7 bd 7b 3d e8 b2 19 bd
       0.037785158 -0.061942495 0.061460283 -0.037524134
000170 e8 1a 36 bd 56 f4 cc 3a 77 7c c0 3c cc f0 09 bd
       -0.044459254 0.0015636783 0.02349685 -0.033676907
000180 d5 a9 ca 3b fb c9 94 bd 6c 2f c2 bd e4 76 da bc
       0.0061847963 -0.07265087 -0.09481701 -0.02666802
000190 eb 97 be bd 3f 35 0a bd 35 51 11 3d 0e 24 9c bd
       -0.0930632 -0.033742186 0.035477836 -0.076240644
0001a0 2c 18 01 bd be ca 10 3c c4 2c 08 bd 47 d7 d5 bb
       -0.031517193 0.0088374 -0.033245817 -0.006525907
0001b0 15 7e f6 3c 46 71 9b bd 5b 6c 09 3d 94 cd 08 be
       0.030089417 -0.075899646 0.0335506 -0.13359672
0001c0 16 3f 2f bd 31 7a 59 bd d2 b0 69 bd 64 1a 91 3b
       -0.042784773 -0.053095046 -0.057053395 0.004428195
0001d0 67 e3 ba bb ad 8c 22 bc 2e 79 b6 bc 34 e1 eb 3c
       -0.005703378 -0.009921235 -0.02227458 0.028793909
0001e0 12 1e bb 3d f9 4f ef 39 e5 c5 9a bb 69 48 7c bd
       0.09136595 0.00045645217 -0.004723298 -0.061592493
0001f0 68 64 d9 bb 34 be 16 bd 54 0d 37 bd 78 c1 70 3d
       -0.006634284 -0.036802486 -0.044690445 0.058778256
000200 80 52 0d 3c 12 b7 e9 bc 54 88 2a bb 6b c8 36 bd
       0.008625627 -0.028529678 -0.00260212 -0.044624727
000210 21 e3 2f bd 0a 62 3b bd ae a3 86 bd d6 3f fb bd
       -0.042941216 -0.045747794 -0.06574188 -0.12268035
000220 5f 12 05 bc 24 2d 41 bd de 3c 7a bd e7 65 83 3b
       -0.008122056 -0.04716219 -0.061093204 0.0040099504
000230 b3 58 02 be 13 eb 95 bd a8 d3 65 bb bc 04 fe bc
       -0.12729149 -0.073202275 -0.0035068784 -0.031008117
000240 c9 44 50 bd dc f6 17 bd bb 12 14 bc ec b3 88 bd
       -0.05084685 -0.037100658 -0.009037669 -0.066749424
000250 05 92 83 3b c0 c7 ab 3c 55 62 00 be b1 db 25 bd
       0.0040152096 0.020969272 -0.1253751 -0.040492717
000260 df f9 d5 bb 99 fe 56 bb 37 d1 fa bc 2e ea 49 3d
       -0.006530031 -0.003280556 -0.03061734 0.049295597
000270 92 44 7e bc 0b 5b 3e bd f9 0a f9 bc af 57 9f bc
       -0.015519278 -0.046473544 -0.03040074 -0.01945099
000280 2f 94 e7 bc 69 c1 1c bd 76 5c 87 bd 41 7a bd bd
       -0.028268902 -0.038270388 -0.066094324 -0.09251834
000290 ed bb 3b bd 37 8e 94 bb cf 4a 0c 3d 39 d6 11 bd
       -0.045833517 -0.004533555 0.03425103 -0.03560469
0002a0 b1 90 f1 bc 88 dd 55 bc 1a 5b aa 3b 1c 07 88 3c
       -0.02948794 -0.013053305 0.0051988484 0.016604953
0002b0 6a da af bd a4 a5 96 bd 2e 45 4b bd c8 d5 c9 3c
       -0.08586581 -0.07355812 -0.04962652 0.024638072
0002c0 58 3d f0 bc e3 ca 87 bd 0e 58 3d 3d 4c e3 08 3d
       -0.029326126 -0.066304944 0.046226554 0.033419892
0002d0 75 f9 83 bc 81 e3 8c bd 8f 2d 94 bc 5b 3e 95 3c
       -0.016110161 -0.068793304 -0.01808813 0.01821821
0002e0 7a a1 e6 bd 08 6e 7e bd cd 5a d6 bd 06 cd 32 bd
       -0.11261268 -0.062116653 -0.104665376 -0.043652557
0002f0 ce a0 49 3b e0 34 68 bc da f3 94 bb 1d ee ad bd
       0.0030766013 -0.014172763 -0.004545671 -0.08492682
000300 7b 51 12 bd 28 95 39 bd f0 33 42 3d 31 ff f7 bc
       -0.035722237 -0.045308262 0.047412813 -0.030273052
000310 d2 9d 3b bb bd 30 0c 3d 14 3e 10 bd 49 7e b1 bc
       -0.0028628004 0.034226168 -0.035215452 -0.021666663
000320 45 59 37 bd b9 48 b2 bd 1f 57 ac bc e0 63 91 3d
       -0.04476287 -0.08705277 -0.021037636 0.07099128
000330 77 bc 55 bb 1e fa 8e bc 69 9b 3e bd f3 6f aa bd
       -0.0032613555 -0.01745325 -0.04653493 -0.08322134
000340 22 cc 86 b5 0b 7a 89 bc 61 aa c4 ba 7e 8c 45 3b
       -1.0043188e-06 -0.016781827 -0.001500439 0.0030143554
000350 11 01 3c bc ac a4 a5 bd 1a f5 95 b7 07 ea b2 3c
       -0.011474864 -0.08088049 -1.7876318e-05 0.021840109
000360 fb 96 3c bd 13 1e 7c 3b 51 1c 1c bd a5 d8 ba 3c
       -0.046042424 0.0038470074 -0.038112942 0.022808382
000370 f6 34 fd bc d7 c7 85 bc 94 c6 4f bc df 84 70 3d
       -0.030909043 -0.016330643 -0.012681622 0.058720466
000380 e5 b9 75 bc 7b 5d ba bc d9 89 d4 3c ab 53 b6 bd
       -0.014997934 -0.022749653 0.025944637 -0.08902677
000390 19 75 73 bc 4e ef 9d bd 3e ed 16 3d f8 bb aa 3c
       -0.014859461 -0.07711659 0.036847346 0.020841584
0003a0 f7 0c 63 3d 67 01 af bc 28 61 00 3c a8 13 59 3d
       0.055432286 -0.021362973 0.007835664 0.05299726
0003b0 05 e1 d8 bd 97 19 24 3d 22 ca 1b bc ee 1b f1 bc
       -0.10589794 0.040063467 -0.009508641 -0.029432263
0003c0 6e 64 a8 3b 24 1d d0 3a 45 e4 6a bc f1 58 bb bc
       0.0051389253 0.0015877825 -0.01433665 -0.022869559
0003d0 f4 ec 66 bd 18 eb 00 be 94 8e 7c 3c 72 6b 37 3c
       -0.05637832 -0.12589681 0.015414853 0.011195051
0003e0 cf 42 09 bd 88 49 28 b8 b9 dc 54 bd 2f 72 12 be
       -0.03351098 -4.0122803e-05 -0.05196831 -0.1430137
0003f0 51 41 fa bd a1 55 0d bd df 43 5a bc a6 b1 96 bc
       -0.12219489 -0.03450549 -0.013321846 -0.018395256
