demo/weights/convseg_3_1_bias_0.npy (npy, 592 bytes, 1 tensors)

array f4 [128]
00000000: 3372 6d3b a490 6dbc 85d2 753a b055 e239
00000010: a2c9 fdbe a5fe 23bb 3b25 8b3d 2ba7 99be
00000020: f078 713d 4cf5 bb3d 7928 393f 4994 66bf
00000030: 15d1 2cbe 61ee 403f b5c0 213d c695 0fbe
00000040: 060c e33d 7067 7cbd 332e d83c 83c0 88bd
00000050: f97e 6d3c dec6 88bd 9719 dbbe 7181 db3c
00000060: b917 863d 4089 38bd 3f4e b33e 4b45 13bd
00000070: 33c8 c03a c070 2d3d b341 843e ff54 53bd
00000080: 6e27 af3b 144f 153c b3df 5bbd a521 bb3d
00000090: 89f9 84bc b879 fabd ba51 0d3e ec29 793e
000000a0: 24b9 ae3d af75 dfbe 60eb 0e3e b374 9f3e
000000b0: 682e 713d 1ca0 8d3d 5d02 dbbe 315a 973d
000000c0: 167e 0b3e 1cd6 c73d 6958 d33c ece8 f13d
000000d0: c1e4 46bd d8d5 86bd 1023 35bd 6bea 073e
000000e0: f180 633d 90e9 31bd 680a 40be c80f d9bc
000000f0: 697b a53d 282f 3fbf 452a acbd ec28 73b9
00000100: 0038 1d3d 5dfb 9b3d 3dc0 0cbc d5a6 9d3d
00000110: 7990 403e d413 a1bd 176a adbe 6295 41bc
00000120: 6835 5ebb a392 323f d61d babd a8b8 133d
00000130: 5447 29be e0be f53e ba41 df3e f7e7 d9bb
00000140: 6fb7 3abb a8ff c5be 0750 ec3a 5b77 eebe
00000150: e518 9fbd 3434 9e3e 00ad 1b3f e057 1fbc
00000160: fb2c bd3d da76 13bd 4ccb 0bbc 3a11 5d3d
00000170: a80c 7c3d 396b 643d f230 abbe db2d e0bc
00000180: 1f7d 38bd 5c78 e9bc e49f b33c 7b3e 513c
00000190: 9d55 2ebe f374 313c 7ce8 123f 44b0 08bf
000001a0: 79d4 483e 2abe d33c 15b8 d03d ce06 4dbd
000001b0: 70cc ddbe 2e87 4abe 261e ab3c 623a 3e3f
000001c0: 7ef9 82be 2848 5e3d 430e f03c 870f 92bc
000001d0: 1869 a8bd a2e9 37bc d87f b53e 0273 5c3f
000001e0: 5123 943d f8ad 95be 788a 953d d98f 7abd
000001f0: fd5e eebc 8468 f4bc 7403 fd3c cfdd 833e
0.0036231398 -0.014499817 0.0009377378 0.0004316992 -0.49567896 -0.0025023606 0.067942105 -0.30010352
0.058953226 0.09177646 0.7232738 -0.90070015 -0.16876633 0.7536374 0.03949042 -0.14021978
0.11086278 -0.061622083 0.026389217 -0.06677344 0.014495605 -0.06678556 -0.4279296 0.02679512
0.065474935 -0.045052767 0.35020635 -0.035954755 0.0014708102 0.042343855 0.25831375 -0.05159473
0.0053452766 0.009113092 -0.053680133 0.091372766 -0.016232269 -0.12230247 0.13800707 0.24332398
0.085314065 -0.43644473 0.13956976 0.31143722 0.058882147 0.06915304 -0.4277524 0.073902495
0.13622317 0.09757635 0.025798993 0.118120044 -0.048558 -0.06583756 -0.04422289 0.13273017
0.05554289 -0.043435633 -0.1875397 -0.026496783 0.08080179 -0.7468133 -0.084065 -0.0002318953
0.038383484 0.07616303 -0.008590755 0.07697836 0.18805112 -0.0786511 -0.33870003 -0.011815401
-0.0033906344 0.69755 -0.09087722 0.036064774 -0.16531116 0.4799719 0.43604833 -0.006649967
-0.0028490683 -0.38671613 0.0018029221 -0.46575436 -0.0776842 0.30899203 0.6081085 -0.009725541
0.09237095 -0.036002018 -0.0085323565 0.053971507 0.061535507 0.055766318 -0.3343578 -0.027365616
-0.0450412 -0.028499775 0.021926828 0.012771244 -0.17024846 0.0108311055 0.57385993 -0.5339396
0.19612302 0.025847513 0.10191361 -0.050055318 -0.43320036 -0.1977813 0.0208884 0.74307835
-0.25580972 0.054268032 0.029303676 -0.01782967 -0.0822317 -0.011225136 0.354491 0.8611299
0.072332986 -0.2923429 0.073018014 -0.06117234 -0.029098028 -0.029834993 0.030885436 0.25755164
