demo/weights/convseg_2_1_kernel_0.npy (npy, 131168 bytes, 1 tensors)

array f4 [1, 1, 256, 128]
00000000: 803d 283d fdf5 793b 697b 933d 6f9b 173d
00000010: 9939 07bc d172 d23b 5d12 98bb f300 103d
00000020: cb84 39bd 7d36 503c 85f3 9d3d c7ad 903c
00000030: 9491 31bc 3d7f 8ebc 273b 6c3d 2c66 00be
00000040: 90bc 6c3d 4519 b83a 825c b7bc 7732 013c
00000050: 3e1c 023d 3389 f8bc 7472 c63c bad4 e33c
00000060: 5d94 2cbd 5754 293d 8a2f d0bc 21d0 983d
00000070: a866 c03d 8dd6 c23c 3091 a9bc d6bd 943c
00000080: 1106 5e39 1de4 133e dc77 bc3d d214 5f3d
00000090: 9450 b23b a31a 173d 1f0c b9bc 2c77 d9bc
000000a0: 8903 89bc 8721 df3d 8760 4b3b 5af3 673c
000000b0: 1c41 e23c 46ac 823d 5c78 983d 4a8e 0dbd
000000c0: dda7 9d3d cb9c 803d aede d5bd 691e 363d
000000d0: 7ba7 d7bc adb1 ccbc af06 fb3c 62b8 b13d
000000e0: e4a3 88bb 5176 483c 969e b53c 9a8a 04bd
000000f0: aa62 983c fde4 7a3d 9566 083d 553c 5f3c
00000100: 1435 df3d 96a7 fbb9 73c1 6b3c 7ee4 653c
00000110: 603a e23d 64cc b8bb 2cbb ec3c 6e8f 553d
00000120: eda7 a5bd 4f81 a93c 1a6b 9abd 3474 96bc
00000130: 6869 e5bc 5a2b 8d3d c082 5d3b f058 f33c
00000140: 9685 3e3e e343 ddbd 0302 7cbc 2827 dcbd
00000150: 63a3 16bd 43dc 8e3c 94a6 053d 1382 1d3c
00000160: 3894 c4bd efa8 143e 3251 92bd f847 c2bb
00000170: 1370 82bc 9b4a 8b3c 02ec 863c 07ca 853d
00000180: a2be 223c 03e3 373d 6c3f 363d ae04 603c
00000190: 2fba 7b3c b8d6 e13d 9a68 953d ff50 a53c
000001a0: 134e f43d 003f 583d 0827 183c e505 a43d
000001b0: 8d1a d63d 72a0 35bd 20dd b23c 8315 e03d
000001c0: 39f8 fe3d 5963 4f3d 5937 0e3d 9cf9 a9bc
000001d0: 4f6c d73b fe68 f53d c10b 023d 954f 093d
000001e0: 7732 62a3 9d0a 54bc 8063 7aba 3c5b 8e3d
000001f0: 4593 8e3d c6c4 a0bd 926a 1bbc eca8 69bd
00000200: 5550 febd 548b 24bd f679 b1ba f272 04be
00000210: 3f0b af3d 8dc2 8fbd 4817 65bc 8c46 463d
00000220: a656 66bd 8596 6b3c 11c5 90bd 8dc2 40bc
00000230: 04d0 893c 0e17 3dbd c7a6 433b b7ea 55bc
00000240: c744 883d 72a1 67b7 934a f7bc 0c63 b4bc
00000250: 1988 4e3c d83f 6bbd bada 453c 4ef1 703c
00000260: 3988 78bd 8462 bd3c 7842 76bd 6991 b53a
00000270: 8af2 acbc 6707 903d 7956 b4bd 2914 01bc
00000280: 342b 66bd 9bf4 043c 17eb d6bd a46f c2bc
00000290: d8a2 f1ba bfa4 91bd 6f45 203d 601d 803d
000002a0: cbef d93a 6a31 81bd d1d4 893c 748e f7bd
000002b0: 73d9 393d 14e4 16bc 8b48 873c 38a8 65bd
000002c0: b005 4a3d c733 a5bd 785e 893b 59e5 3b3c
000002d0: 6e3a d43a 7218 1f3d 2660 bc3b fa20 92bd
000002e0: 5c59 ef3a b440 3d3c e094 623d 5aff a5bc
000002f0: d96b 053d 0818 38bc 6671 83bd 7544 983c
00000300: 7c12 c23b 7932 3e3d 9848 6b3c 935d eebd
00000310: cb95 08be a763 f73b b543 423d 9618 10bd
00000320: 97d9 1cbd d41f 1d3c 0d67 13bc 2306 373c
00000330: d364 943c 5a68 76bc ac7f 573d 3fc7 2abd
00000340: cfd8 783c 50af 25bc 1c2f d5bb 5dcb adbc
00000350: 3421 073c c28d 183c 3c71 653c 8409 1c3d
00000360: f7dd 8abc 2123 813d 26f3 b73b 0e9b 183c
00000370: 0197 98bc 8ed1 ddbd 1e4c 30bd bf63 853d
00000380: 42f7 c03b f38a 2c3d b31d 023d 1265 673c
00000390: 3998 2d3d c940 e0ba 355e 57bd 8441 47bc
000003a0: c4fe 79bc 90f6 5cbd 3805 57bc fa03 84bd
000003b0: d4cb 683c 329f b33d 0abe 183d 1691 15be
000003c0: 32eb a9bb 68ff 7f3c e637 00bc 1028 393c
000003d0: 0a78 6ebd f59f ff3c 3287 003d 0977 363d
000003e0: a782 d323 2938 a03c 4f66 9ab8 be53 50bc
000003f0: eeeb 673d 2bb5 803c cbe5 85bb 1afb 7abd
0.041074276 0.0038141005 0.07201273 0.037013467 -0.008253478 0.0064223786 -0.004640861 0.035157155
-0.045292657 0.0127083035 0.07712463 0.017660988 -0.010837931 -0.017394656 0.0576736 -0.12538975
0.057797015 0.0014045617 -0.022382978 0.007885567 0.031765215 -0.03033886 0.024224497 0.027811397
-0.042133678 0.0413402 -0.025413293 0.074615724 0.0939458 0.023783946 -0.020699114 0.018156927
0.0002117383 0.14442487 0.09202549 0.054463215 0.0054417346 0.036890637 -0.022588788 -0.026546083
-0.016725319 0.10895067 0.0031032877 0.014157141 0.027618937 0.06380515 0.07444832 -0.034559526
0.07698033 0.06279906 -0.104428634 0.044462595 -0.026324978 -0.024987066 0.030642835 0.08677746
-0.004169928 0.01223524 0.022170346 -0.032358743 0.018601734 0.061253536 0.033300955 0.013625224
0.10898796 -0.00047999312 0.014389384 0.014031528 0.110462904 -0.0056395996 0.028897844 0.05213874
-0.0808867 0.020691542 -0.07539959 -0.018365957 -0.028004363 0.06893034 0.0033799857 0.029705495
0.18605646 -0.10803964 -0.015381339 -0.10749656 -0.03677691 0.017439013 0.032629564 0.009613532
-0.09598583 0.14517568 -0.07144393 -0.0059289895 -0.015922582 0.017003348 0.01646996 0.06532674
0.009933146 0.04489423 0.044494078 0.013672991 0.015364214 0.110272825 0.07295342 0.020180224
0.11928954 0.052794456 0.0092866495 0.08008937 0.10454283 -0.044342466 0.021833956 0.10941603
0.124496885 0.050631855 0.034720752 -0.020748906 0.0065741907 0.11982916 0.03174949 0.03352316
-1.2262171e-17 -0.0129419835 -0.000955157 0.06950995 0.06961683 -0.078500316 -0.009485858 -0.057045862
-0.12417666 -0.040171936 -0.0013540376 -0.12934473 0.08547067 -0.070195295 -0.013982601 0.048407122
-0.05623498 0.014379148 -0.070688374 -0.0117651345 0.016822822 -0.046164565 0.0029854046 -0.013056449
0.06653743 -1.3806262e-05 -0.030186927 -0.022019885 0.01260569 -0.057433933 0.012076074 0.014705969
-0.060676787 0.023118265 -0.060121983 0.001385254 -0.021111745 0.07032662 -0.08805556 -0.007878342
-0.056193545 0.008114959 -0.104940586 -0.023734875 -0.0018435372 -0.07111501 0.039128717 0.06255603
0.001662725 -0.06308253 0.016825112 -0.12087718 0.04537339 -0.0092096515 0.016514083 -0.05606863
0.04932183 -0.08066516 0.0041921698 0.011468255 0.001619173 0.038841672 0.0057487665 -0.07135196
0.0018260884 0.011551071 0.05531776 -0.020263363 0.032573555 -0.011236198 -0.064181134 0.01858733
0.0059226137 0.046434853 0.014360569 -0.116389416 -0.13338391 0.0075497213 0.04742785 -0.035179697
-0.038293447 0.009590108 -0.008996737 0.011170897 0.018114483 -0.015039528 0.05261199 -0.041693922
0.01518841 -0.010112599 -0.00650586 -0.021215135 0.008247662 0.009311141 0.014004048 0.038095012
-0.016951544 0.063055284 0.0056137023 0.009314312 -0.018626692 -0.10830985 -0.04304134 0.06513166
0.0058888504 0.0421247 0.031766605 0.014123218 0.0423815 -0.0017109151 -0.052580077 -0.012161616
-0.015258495 -0.053946078 -0.013123803 -0.06446071 0.014208753 0.087705985 0.03729061 -0.14606127
-0.005185508 0.015624858 -0.007825827 0.011301056 -0.058219947 0.031204203 0.031378932 0.044547115
2.2932e-17 0.01955803 -7.362349e-05 -0.012715278 0.056621484 0.015711388 -0.0040862313 -0.061274625
