demo/weights/conv4_1_bias_0.npy (npy, 1104 bytes, 1 tensors)

array f4 [256]
00000000: d4dc 47bd 6fd1 d43c 23fc f13c 777d 37bc
00000010: 51f4 49bc 7255 dfbb 8a0d bdbc f2c8 9fbc
00000020: 6845 ce3b 2523 2cbc 7536 353c 9aaa 213c
00000030: ff6d babc f2bd a23c deff 0e3c 11af b03b
00000040: 7ca5 b33b 6ace dbbb 704d 24bd 559a edbc
00000050: 9ce1 7a3c eeb7 143d 75be 8dbc 24c7 843c
00000060: cf53 23bc 2641 b63c df58 da3c 03ed 203d
00000070: d85b 773c e0dd 5f3c 9d1f 073d 3e67 7b3b
00000080: cdfe 5d3c 7fe2 efbc 95d2 f63c 0c30 393c
00000090: 523f 43bd 1e39 9739 a036 96bc 9901 1a3c
000000a0: 9ca4 16bd 29a5 4c3c 5563 9a3c a6fe 96bc
000000b0: a7f7 24bb 67e9 a5b9 8bbf 483b 63d6 debb
000000c0: b6f8 beb9 ed0a b43b 8a06 18bc 50ad aa3b
000000d0: 8c82 e2bc cca3 7fbc 98a4 5e3c 48d3 143a
000000e0: 67a5 33bc 846b 843b 4c17 25bd 8d3e 0b3d
000000f0: 81e3 72bb e8c9 9abc 83c9 bebc 9484 3bbc
00000100: 1d67 95bc a406 e13b 1080 2f3c 9e24 cfbc
00000110: 42b1 083d 5591 ca3c 1248 123c 4975 6bbd
00000120: 6339 00bc ab49 5f3c 7167 6bbb 7010 5e3b
00000130: edbc 713a 7539 ab3b 176c 30bc e81c 2f3c
00000140: 8ebc f63c feae 78b8 217d 923b f83e cebc
00000150: 4da5 85bb 15eb 653c 5faa 923b 0c57 4cbd
00000160: 99a0 b03c 8a5d 633c 7636 203d 592d 2f3c
00000170: 6309 17bb 6365 f33c e56a 8dbb f797 14bd
00000180: b8cf bbbc 0e2e a63c 307e 083c 57c3 843b
00000190: a6a2 893b 047b b13c 4fb8 febc 4513 2abc
000001a0: 5d5e cabb f0f5 e2bc 579b d7bc e807 82bc
000001b0: 4b60 ab3c 2aa8 8cbc 5de9 69b9 9a57 2b3c
000001c0: 4a69 ad3c 4747 1d3d 29d2 34bb 79ec 9d3c
000001d0: f996 f63b 2863 1ebc 2a56 c13c 7ab6 083a
000001e0: 39e5 febc 3955 943c 3416 c0bc 6f6d 14bc
000001f0: ffe7 2ebc 1136 efbb d637 81bc 31d2 3e3c
00000200: 898c 2e3d 3d83 b93c 9aeb ed3b ab5b 02bb
00000210: 89b6 16b9 630f dfbb 3879 ec3b 618d 0d3c
00000220: 89a9 573a ab81 7dbc d262 ff3c 31b4 4f3d
00000230: 4c09 5bbc 52fe e53a 1633 e2bc af94 1ebc
00000240: 9646 5f3c abac 9abc 6d18 ee3c 9edf 193c
00000250: 9fb5 67bb 45b8 d33c 251d e9bb c88d 72bc
00000260: 2910 90bb 8505 4c3b 86c1 de3b 66bb cbb9
00000270: 6180 453c b21f c03c 1002 7b3b 56c5 b8bc
00000280: 3e7d 7abb f92e ee3c 4340 3ebc 31df a43a
00000290: 20c9 203d d2fe 2c3d f583 7d3b 0d5e 80bc
000002a0: 4d25 433a 8445 d4bc 9bc8 e7ba e089 e63c
000002b0: 5400 7dbc 6907 2f3c b2b6 edbc a7d9 40ba
000002c0: 162e 043d cc5a 04bd f19c cb3c 310d ab3c
000002d0: 5f45 1dbd 0f6f b33b a078 a8bc cfa7 c03b
000002e0: 59b6 243d 06d3 a9ba ee64 debb 5888 4d3b
000002f0: c976 ab3c 8e58 e73c 18bb 33bb db0e 42bc
00000300: 3997 cf3c b6f7 3abc af45 4cbb 9bb4 d33b
00000310: 4acc ebbb 6964 27bc 7c80 813a 6468 fcbc
00000320: aeb2 dbbc 4f9e 043c 1a43 283b 55ba 2a3b
00000330: dd97 90bc 5dad 93bb 110b 523c 4f94 603c
00000340: d44a 06bb 4b32 c2bb 2804 41bc fe89 50b9
00000350: b969 4f3c 3c6f fabb 1a61 cc3b 9700 30bc
00000360: 51a4 77bb 0b59 c63c e911 713c 7917 d0bb
00000370: c53e d3bb 7ec0 363d a1f0 79bc 6cac 5c3c
00000380: d7e1 a0bb 3429 d53c 490d b33b 234a c0bc
00000390: f99f 54bc fd4d a63c e68a 4fbd 7882 823b
000003a0: 0778 07bc 717b c3bc 2b28 a6bc a4e4 163c
000003b0: 4a60 22bd a2b9 9dbb d87e b5b9 e41e d4bc
000003c0: d4d7 1d3a deee 433d f78d c2bc 03d5 30bc
000003d0: c9ef c9bb 4227 123c bff1 08b9 1c92 e0bc
000003e0: c513 9f3c bff1 943b c40b 23bc 8781 0cbd
000003f0: 41c2 833c 0fe4 24bd 5d78 253c 9ac3 7abb
-0.048794582 0.025978772 0.029539173 -0.011199347 -0.012326316 -0.006815606 -0.023077745 -0.019504998
0.006294895 -0.010506426 0.011060347 0.009867335 -0.022757528 0.019865964 0.008727996 0.0053919633
0.0054823738 -0.006707956 -0.040112913 -0.029004255 0.0153125785 0.03630822 -0.017302731 0.016208239
-0.009968712 0.022247862 0.026653705 0.039288532 0.015097581 0.013663739 0.032989133 0.0038361098
0.013549519 -0.029282806 0.03012971 0.011302959 -0.04766781 0.0002884352 -0.018336594 0.009399795
-0.036778077 0.012490549 0.018846193 -0.018431973 -0.0025172026 -0.0003164515 0.0030631747 -0.006800459
-0.00036424928 0.0054944665 -0.009278903 0.0052086487 -0.02765014 -0.015603017 0.013589047 0.00056772353
-0.010964728 0.004041137 -0.04030542 0.0339952 -0.0037061872 -0.018895105 -0.023289448 -0.011445183
-0.018237645 0.0068672467 0.010711685 -0.025286015 0.03337217 0.024727503 0.008928316 -0.0574849
-0.007826182 0.013628404 -0.003591981 0.003388431 0.00092215725 0.0052253553 -0.010767958 0.010688044
0.030119207 -5.929078e-05 0.004470483 -0.02517651 -0.0040785433 0.014033099 0.004475876 -0.049887702
0.021560954 0.013877282 0.039114438 0.010691964 -0.0023046366 0.02971143 -0.0043157213 -0.036277737
-0.022926196 0.020285632 0.008330867 0.0040516066 0.0042002974 0.021665104 -0.031093745 -0.010380571
-0.0061757998 -0.027705163 -0.026319189 -0.01587291 0.02091994 -0.01717003 -0.00022307546 0.010457898
0.02116837 0.038398053 -0.0027591086 0.019277798 0.0075253216 -0.009667195 0.023600657 0.00052151794
-0.031115161 0.018107044 -0.023448087 -0.009059294 -0.010675429 -0.0073001464 -0.015773695 0.011646793
0.042614494 0.022645587 0.007260752 -0.0019891064 -0.00014373114 -0.006807254 0.007216599 0.008639664
0.0008226862 -0.01547281 0.03117505 0.050708953 -0.013368916 0.0017547107 -0.02761225 -0.009679004
0.013627669 -0.018881163 0.029064381 0.009391693 -0.0035356057 0.025844702 -0.00711407 -0.014804311
-0.0043964577 0.003113122 0.006797972 -0.000388588 0.012054534 0.023452614 0.003830079 -0.022555035
-0.0038221623 0.029075133 -0.011612001 0.0012578723 0.039254308 0.042235203 0.003868339 -0.015669847
0.0007444218 -0.025912054 -0.0017683686 0.028141916 -0.015441973 0.010682919 -0.02901778 -0.00073566515
0.032270513 -0.032313153 0.024855109 0.020880314 -0.038396236 0.0054758857 -0.020565331 0.0058793793
0.040212963 -0.0012956567 -0.006786934 0.0031361785 0.020930665 0.028240468 -0.002742475 -0.011844362
0.025340663 -0.011411598 -0.0031169464 0.006460739 -0.007195984 -0.010216811 0.000988021 -0.030811496
-0.0268186 0.008094384 0.0025674761 0.0026051004 -0.017650539 -0.0045067505 0.012820021 0.0137072345
-0.0020491378 -0.0059264055 -0.011780776 -0.00019887832 0.012659484 -0.0076426547 0.0062371613 -0.010742328
-0.003778715 0.02421238 0.014713743 -0.0063504544 -0.0064466917 0.04461717 -0.015255124 0.013468843
-0.0049097347 0.026020624 0.00546423 -0.023472851 -0.012977594 0.02030086 -0.050669573 0.0039828382
-0.008268363 -0.023862572 -0.020282825 0.009209786 -0.03964261 -0.004813389 -0.00034617516 -0.025893636
0.00060212356 0.047835223 -0.023749335 -0.010792973 -0.006162618 0.008920493 -0.00013060028 -0.02741342
0.019418607 0.00454542 -0.009951536 -0.034303214 0.016083838 -0.040256556 0.010099498 -0.003826356
