demo/weights/conv2_1_bias_0.npy (npy, 592 bytes, 1 tensors)

array f4 [128]
0.037303627 -0.06988408 -0.00954325 -0.042590763 0.01326553 0.09475775 -0.14863344 0.039155774
0.016623348 0.110874996 -0.074195415 -0.038907677 -0.071934074 0.0033752173 0.033043943 -0.004580675
0.00042201122 0.014090083 0.06279196 -0.11593691 0.020173393 0.026285049 -0.07782262 0.058366224
0.005955558 0.020738222 -0.000805745 0.06871659 -0.045416135 -0.005378761 -0.086304195 0.095509976
0.01888467 -0.011146308 0.062543735 0.045391105 -0.022151504 -0.012432076 0.040169906 -0.0554698
0.020474631 0.010514462 0.15417965 0.038499307 0.03295983 -0.07239667 -0.04842248 -0.040098798
0.039913476 -0.07120383 0.056580063 -0.04454232 0.01282276 0.053520843 0.0037305607 -0.04937173
4.7824207e-05 -0.0438568 0.18097673 0.08368768 0.0118689425 0.11416356 -0.035165165 0.03511446
-0.040116556 -0.097341344 -0.0044009825 -0.0575278 0.16940746 -0.08446342 -0.01572808 0.06625367
0.1298727 0.06088391 -0.023765178 -0.11590336 -0.03224617 -0.04606927 -0.061692614 -0.05050979
0.016454743 0.014949405 -0.030276285 -0.011264378 -0.007257766 0.08728009 0.1105206 0.09883474
0.0956735 -0.059025995 -0.114470154 0.05122469 -0.09483782 -0.0743018 -0.044536892 -0.020722805
-0.11486104 -0.1780151 0.080323316 -0.08512867 -0.035908796 0.06469752 -0.00736122 0.026909936
-0.024764052 -0.022846239 -0.07858415 -0.08653904 -0.060707267 -0.025326127 0.06136168 -0.08413853
0.023530873 0.018112531 -0.0035956088 -0.07799496 -0.048785128 0.05948293 -0.08892381 -0.0019249395
0.11429536 0.03411427 0.053685576 0.0045653046 -0.06858692 -0.007040064 0.006490282 0.0079397885
00000000: b0cb 183d 621f 8fbd 4b5b 1cbc a773 2ebd
00000010: aa57 593c 5a10 c23d 5d33 18be ce61 203d
00000020: b02d 883c 6e12 e33d c4f3 97bd a85d 1fbd
00000030: 2c52 93bd c032 5d3b 1659 073d 7d19 96bb
00000040: 6341 dd39 17da 663c 1299 803d 5570 edbd
00000050: ac42 a53c be53 d73c 7761 9fbd 6c11 6f3d
00000060: d726 c33b 34e3 a93c a238 53ba 49bb 8c3d
00000070: 4506 3abd 5140 b0bb 41c0 b0bd bc9a c33d
00000080: 06b4 9a3c 019f 36bc ee16 803d 06ec 393d
00000090: 1277 b5bc e8af 4bbc 3389 243d 4d34 63bd
000000a0: 6aba a73c da44 2c3c 45e1 1d3e 73b1 1d3d
000000b0: e300 073d b544 94bd a656 46bd a33e 24bd
000000c0: 507c 233d 50d3 91bd 7fc0 673d 0272 36bd
000000d0: 8e16 523c ac38 5b3d 6c7c 743b 033a 4abd
000000e0: da96 4838 30a3 33bd f751 393e 7264 ab3d
000000f0: f475 423c 96ce e93d 5909 10bd 2ed4 0f3d
00000100: 4251 24bd e65a c7bd 1e36 90bb 45a2 6bbd
00000110: 2679 2d3e 28fb acbd 2dd8 80bc 01b0 873d
00000120: 59fd 043e 6861 793d 31af c2bc be5e edbd
00000130: 8f14 04bd 22b3 3cbd 65b1 7cbd 5be3 4ebd
00000140: 19cc 863c 59ee 743c f905 f8bc 3a8e 38bc
00000150: 8ed2 edbb e7bf b23d a058 e23d de69 ca3d
00000160: 78f0 c33d 3ec5 71bd 546f eabd fbd0 513d
00000170: 553a c2bd 8b2b 98bd 516c 36bd dfc2 a9bc
00000180: 443c ebbd 9749 36be 8d80 a43d f157 aebd
00000190: 1a15 13bd 2280 843d 6436 f1bb 3a72 dc3c
000001a0: fbdd cabc 0928 bbbc baf0 a0bd 613b b1bd
000001b0: 2fa8 78bd bd78 cfbc 6356 7b3d d250 acbd
000001c0: d1c3 c03c bb60 943c 4ea4 6bbb d2bb 9fbd
000001d0: ead2 47bd 5fa4 733d b01d b6bd 404e fcba
000001e0: b013 ea3d 68bb 0b3d 68e5 5b3d 8d98 953b
000001f0: 4d77 8cbd 56b0 e6bb 6eac d43b e315 023c
