demo/weights/convseg_2_1_bias_0.npy (npy, 592 bytes, 1 tensors)

array f4 [128]
-0.068381704 0.013524869 -0.055791847 -0.0354562 -0.028099999 0.07991183 -0.075439185 0.70664346
0.115306616 0.053372324 0.16225417 -0.24874726 -0.072555214 0.041267823 0.081912175 -0.038601346
-0.11424777 0.015973007 0.12677054 0.0862529 -0.1583748 -0.012639129 0.0026215306 -0.08410458
-0.023144782 -0.055833876 0.05755771 0.15659954 -0.1477612 0.10422737 0.096194 0.025446743
0.07170941 0.11135503 -0.14886782 -0.074910685 -0.08184873 0.037294798 0.84006727 0.054879636
-0.11116159 -0.018806456 0.48406422 -0.0057424703 0.47841865 0.0648421 0.074429974 0.009115771
-0.15874308 -0.008568208 -0.034986477 -0.37892956 0.119362324 -0.17299779 0.09003188 -0.06453476
0.07881518 0.36148247 0.039473813 -0.07288665 -0.05477538 0.03763484 0.12021823 0.2439411
-0.08131066 0.39113316 0.09222593 0.033149987 0.067486376 0.1313712 0.60834336 0.33385417
-0.0073213438 0.15319078 -0.020584676 -0.085454054 -0.034387816 0.022493226 -0.109670095 0.014650948
-0.022354461 -0.064070776 0.07962739 -0.05198648 0.20658964 0.042113308 0.61261934 0.6355008
-0.008070411 -0.45454407 0.025274346 0.13257013 -0.035690818 -0.0050703483 0.12993556 0.052841336
-0.13500153 -0.1750616 0.17740713 0.6275273 0.6341429 0.059150748 0.053516317 -0.11442868
0.12274952 -0.06453668 -0.064616136 -0.05541597 -0.05721649 0.06467568 0.037625782 0.050508317
0.04262462 -0.058525976 0.022206737 0.24026859 0.21651709 0.058416113 -0.10400463 0.034758385
-0.05360373 0.9198878 -0.0147461835 0.06898398 0.11686733 0.06057152 0.03233628 0.033034746
00000000: b50b 8cbd 6a97 5d3c fe85 64bd 853a 11bd
00000010: f831 e6bc d0a8 a33d dc7f 9abd 96e6 343f
00000020: e025 ec3d f09c 5a3d f525 263e 9ab7 7ebe
00000030: d497 94bd 7308 293d 92c1 a73d 721c 1ebd
00000040: bcfa e9bd d3d9 823c 23d0 013e 5ca5 b03d
00000050: 012d 22be 5914 4fbc fccd 2b3b 063f acbd
00000060: 209a bdbc 10b2 64bd a2c1 6b3d a15b 203e
00000070: b64e 17be 2975 d53d 5c01 c53d b075 d03c
00000080: 62dc 923d 1b0e e43d ce70 18be c66a 99bd
00000090: 4fa0 a7bd 6ec2 183d a60e 573f 78c9 603d
000000a0: b0a8 e3bd ff0f 9abc 44d7 f73e 552b bcbb
000000b0: 4af3 f43e efcb 843d be6e 983d 515a 153c
000000c0: 8c8d 22be ab61 0cbc fb4d 0fbd 0e03 c2be
000000d0: 3c74 f43d 5526 31be a262 b83d cd2a 84bd
000000e0: da69 a13d 3b14 b93e 4baf 213d 9945 95bd
000000f0: 265c 60bd fd26 1a3d fa34 f63d b2cb 793e
00000100: 3486 a6bd 9b42 c83e f3e0 bc3d 48c8 073d
00000110: 4c36 8a3d 2c86 063e 64bc 1b3f efee aa3e
00000120: e2e7 efbb 0bde 1c3e 32a1 a8bc 8902 afbd
00000130: 3dda 0cbd b743 b83c b79a e0bd 880a 703c
00000140: b420 b7bc 8a37 83bd af13 a33d c6ef 54bd
00000150: 3c8c 533e 017f 2c3d 9fd4 1c3f 2eb0 223f
00000160: c239 04bc 00ba e8be 250c cf3c 77c0 073e
00000170: 8930 12bd 2a25 a6bb d40d 053e 2870 583d
00000180: d73d 0abe 5943 33be 37aa 353e a1a5 203f
00000190: 3057 223f 0e48 723d ed33 5b3d 9559 eabd
000001a0: 1a64 fb3d cf2b 84bd 7755 84bd dbfb 62bd
000001b0: d75b 6abd af74 843d 7e1d 1a3d cfe1 4e3d
000001c0: 2797 2e3d efb8 6fbd e7ea b53c f808 763e
000001d0: a8b6 5d3e bc45 6f3d 6100 d5bd cf5e 0e3d
000001e0: 968f 5bbd c47d 6b3f fa99 71bc 7947 8d3d
000001f0: 2458 ef3d d819 783d 0c73 043d 714f 073d
