demo/weights/conv3_3_bias_0.npy (npy, 1104 bytes, 1 tensors)

array f4 [256]
0	0x3c0846fd	0.008317706
1	0x3cd7b37c	0.026330702
2	0xbcf3edf7	-0.029776556
3	0x3c980c0a	0.018560428
4	0xbb070594	-0.002060269
5	0xbb1b5e41	-0.0023707303
6	0x3de5947e	0.11209963
7	0x3cd0bbda	0.0254802
8	0x3d259c0a	0.040432014
9	0x3c4392f7	0.011936895
10	0xbbdaec0b	-0.0066809705
11	0x3c2029c6	0.009775585
12	0xbbbe9333	-0.0058158874
13	0xbb77789c	-0.0037761098
14	0xbcbe0a77	-0.02319835
15	0x3dc2c3dd	0.09510014
16	0xbb0682d4	-0.0020524757
17	0x3d31f66b	0.043447893
18	0x3b95ecf6	0.004575367
19	0x3c10f031	0.008846329
20	0xbc23d872	-0.010000335
21	0xbd8a2045	-0.06744436
22	0xbbe46655	-0.0069702067
23	0x3e288585	0.16457184
24	0xbcd1c147	-0.025604857
25	0x3acde8ae	0.0015709603
26	0x3ced795c	0.028988533
27	0x3d9c67c1	0.07636977
28	0xbc94b716	-0.018153708
29	0xbb7711d6	-0.003769984
30	0x3b790aa3	0.0038000725
31	0xbddf8b2e	-0.10915218
32	0x3deb571e	0.11491226
33	0x3e9263fb	0.28591904
34	0x3ce15ee0	0.02751106
35	0xbd363a8f	-0.04448944
36	0x3ddbfb48	0.107412875
37	0x3b84d44e	0.004053629
38	0xbc523ec3	-0.012832346
39	0xbb932584	-0.004490556
40	0x3c07576e	0.008260591
41	0x3c5daa4f	0.013529374
42	0x3bfc8f27	0.007707495
43	0x3da0d015	0.078521885
44	0x3c943786	0.018092882
45	0xbd0123a9	-0.03152815
46	0xbd40a48e	-0.04703193
47	0x3d4c2b74	0.049846128
48	0xbbd19aa5	-0.006396609
49	0x3d2348a1	0.039864186
50	0x3d17db36	0.03707429
51	0xbdb283c2	-0.08716537
52	0xbd88139a	-0.06644364
53	0x3c401585	0.011723881
54	0x3db16851	0.08662475
55	0x3ceac56a	0.028658587
56	0xbcf603ba	-0.030031074
57	0xbc978e20	-0.018500388
58	0x3cc64ecc	0.024207495
59	0x3bebbb80	0.0071939826
60	0xbc8a77b0	-0.016902775
61	0x3d26d7a6	0.040733002
62	0xbd8a1323	-0.06741931
63	0xbb50803b	-0.0031814713
64	0x3da853df	0.08219122
65	0x3b192467	0.0023367645
66	0x3ad79511	0.0016447623
67	0xbceb33f7	-0.028711302
68	0xbd3ce0f0	-0.046112955
69	0xbe2aa390	-0.16663957
70	0x3c3e9d92	0.011634247
71	0xbd87ca7f	-0.0663042
72	0x3c7d177b	0.015447493
73	0x3d3c4e95	0.04597338
74	0x3c76757d	0.01504266
75	0xbcbd75d0	-0.023127466
76	0x3aa2a9df	0.0012410245
77	0x3de9c1e1	0.114139326
78	0xbdf301a5	-0.11865548
79	0x3c6a17ec	0.01428793
80	0x3c28f3d9	0.010312044
81	0xbb83ad88	-0.0040184893
82	0xb940793f	-0.00018355715
83	0xbc660a6d	-0.014040572
84	0x3b81e51a	0.0039640786
85	0xbda57013	-0.08078017
86	0xbcac700c	-0.021049522
87	0xbe27d260	-0.16388845
88	0x3d877ced	0.066156246
89	0x3d3d6e7c	0.046247944
90	0x3c16aae1	0.009196014
91	0x3b82f885	0.003996911
92	0xba44fa4a	-0.00075141026
93	0x3ba9ec3d	0.0051856325
94	0xbca03892	-0.019558225
95	0xbd03bcc7	-0.032162454
96	0xbd821da3	-0.06353309
97	0xbd3de470	-0.046360433
98	0xbd0342ea	-0.032046236
99	0xbb187d4b	-0.002326804
100	0x3b1cd437	0.00239302
101	0xbcdf4979	-0.027256714
102	0xbd3f6528	-0.04672733
103	0xbc376f78	-0.01119601
104	0x3d123058	0.035690635
105	0xbc516cf7	-0.012782327
106	0x3d3afd07	0.045651462
107	0xbd2a2523	-0.041539323
108	0xbcc2782f	-0.023738949
109	0xbde2958e	-0.110636815
110	0xbd6ec837	-0.05829641
111	0xbde4843c	-0.11158034
112	0xbd2d4282	-0.042299755
113	0x3e01f311	0.12690379
114	0xbc9d5d09	-0.019209402
115	0x3d98f549	0.074686594
116	0x3ae3e145	0.0017385861
117	0x3dbc3c31	0.09191168
118	0x3b0e94d1	0.0021756182
119	0xbc0a37ff	-0.008436202
120	0xbc2687f3	-0.010164249
121	0xbd03dba4	-0.032191887
122	0x3be44bfa	0.006967065
123	0xbd5e2e19	-0.05424318
124	0x3d98e682	0.07465841
125	0x3d225fca	0.039642133
126	0xbb804ee5	-0.003915655
127	0xbce6c053	-0.02816788
128	0x3d128a10	0.035776198
129	0x3d68495b	0.056710582
130	0x3d30b55e	0.043141715
131	0xbcaedd82	-0.021345858
132	0x3d767d4e	0.060178094
133	0x3b85c978	0.004082855
134	0xbd857018	-0.06515521
135	0xbd63190c	-0.05544381
136	0x3c95fa4e	0.018307831
137	0x3c226b05	0.009913211
138	0x3d4d3fec	0.05010979
139	0x3a820582	0.0009919854
140	0xbb131df1	-0.0022448266
141	0xbc441fd7	-0.011970482
142	0x3d7c322f	0.061571296
143	0xbd33170e	-0.04372316
144	0x3d92722f	0.07150685
145	0xba06ec7f	-0.0005146935
146	0xbbc71eb8	-0.00607666
147	0xbc5a599a	-0.013327027
148	0xbbef818a	-0.0073091434
149	0xbd47d919	-0.048791025
150	0x3d08b1be	0.033372633
151	0x3d09d361	0.033648852
152	0xbcb99ad2	-0.022656832
153	0xbadcea9c	-0.0016854587
154	0xbd98c70a	-0.07459839
155	0xbccfe1b6	-0.025376182
156	0xbcc80141	-0.02441466
157	0x3c5135ae	0.012769146
158	0xbd74a872	-0.059730954
159	0x3c59838f	0.013275995
160	0x3cb1e8fb	0.021717539
161	0xbc0a3505	-0.008435492
162	0xbbcbcddd	-0.006219609
163	0x3d622add	0.05521666
164	0xbd5f05e9	-0.054448996
165	0x3d4e300a	0.050338782
166	0x3d94a5a8	0.07258159
167	0xbdab5922	-0.0836661
168	0xbc3819f3	-0.0112366555
169	0x3c980b6b	0.018560132
170	0xbc8617e0	-0.016368806
171	0xbcf0f710	-0.029414684
172	0x3d3b5505	0.045735378
173	0xbdafa213	-0.08575835
174	0x3bdd3b4f	0.006751455
175	0x3be52db7	0.006993975
176	0xbdb14ea6	-0.08657579
177	0xbd3319f5	-0.043725926
178	0x3b377a8b	0.0027996625
179	0x3e09db69	0.13462605
180	0x3c3ef087	0.011654026
181	0x3d972873	0.07380762
182	0xbda0bc3c	-0.07848403
183	0x3d329f5c	0.04360901
184	0x3b5643dc	0.0032694256
185	0x3d2d117b	0.042253
186	0x3b9c1470	0.0047631785
187	0xbc68c920	-0.014208108
188	0xbc593214	-0.013256568
189	0x3d053d7e	0.032529347
190	0x3c8d8b5b	0.017278364
191	0x3e073e5b	0.1320738
192	0xbafae0b8	-0.0019140458
193	0x3adac4e2	0.0016690756
194	0xbcbb2b1d	-0.022847706
195	0x3d28e9fa	0.041238762
196	0x3d27739e	0.040881746
197	0xbc990c47	-0.018682612
198	0xbcdd4d35	-0.027014354
199	0xbb9868c6	-0.004651162
200	0xbd57bd48	-0.052670747
201	0x3d1ce576	0.03830477
202	0x3958169e	0.00020607791
203	0x3e3a3af0	0.18186545
204	0xbb94c076	-0.0045395447
205	0xbbc10a69	-0.0058911336
206	0xbae8fff3	-0.0017776474
207	0xbb957ff2	-0.0045623714
208	0xbc401ca9	-0.011725583
209	0x3bbad013	0.005701074
210	0x3ca6ca2e	0.020360079
211	0x3d1d0b3a	0.038340785
212	0x3b59b436	0.0033218986
213	0x3c68d6e5	0.014211391
214	0x3cb836be	0.02248704
215	0x3dbc653a	0.09198995
216	0xbd45802a	-0.04821793
217	0x3d1c4617	0.03815278
218	0x3c841afa	0.016126145
219	0x3d8b3e33	0.06798973
220	0xbc7364a9	-0.014855542
221	0xbe13cb94	-0.14433128
222	0xbcac2a77	-0.021016343
223	0xbd374166	-0.044740103
224	0x3c8dc85f	0.017307458
225	0xbbfd5414	-0.00773097
226	0xbca571a5	-0.020195791
227	0xbd1ae62b	-0.03781716
228	0xbba93633	-0.0051639318
229	0xbd3f8676	-0.04675909
230	0x3a001430	0.00048858207
231	0x3bf68946	0.0075236885
232	0x3d334731	0.043769065
233	0xbe1a06cb	-0.15041654
234	0xbd25699f	-0.04038393
235	0xbbb8813f	-0.0056306417
236	0x3d0bba0f	0.034112986
237	0xbca2de3f	-0.019881366
238	0x3cc35080	0.023842096
239	0x3e212cd9	0.15739764
240	0x3c6fe07d	0.0146409245
241	0xbdc5eb9d	-0.0966408
242	0x3b5b7f8f	0.003349278
243	0x3c1175b5	0.008878161
244	0x3d0dabc4	0.034587637
245	0xbd44d12f	-0.048051056
246	0x3ccb9e7d	0.024855847
247	0x3c25918c	0.010105502
248	0x3d5171fd	0.0511341
249	0xbc2843e3	-0.010270092
250	0xbd162bb4	-0.036662772
251	0xbc24a078	-0.010048024
252	0xbab360a5	-0.0013685419
253	0x3cb37e0b	0.021910688
254	0x3d46f4f7	0.04857346
255	0x3bd52fd0	0.006505944
