demo/weights/conv3_1_bias_0.npy (npy, 1104 bytes, 1 tensors)

array f4 [256]
-0.032926496 0.030384107 0.00013439833 0.013169199 0.056533515 -0.054576594 -0.0035121702 -0.0736077
0.057800274 -0.012056163 -0.016870907 0.007729968 -0.0015487887 0.0034998972 -0.03790976 -0.11348303
-0.016050242 0.08003111 -0.017577222 0.04311271 -0.062801324 -0.047036313 0.026441276 0.0009245959
-0.12836966 0.07244637 -0.0055010845 0.010286874 0.032657474 0.09551673 0.023680223 -0.0055981567
0.027320053 0.04320529 0.03746899 0.028107394 0.058728836 0.02115471 -0.12863179 -0.008910536
-0.016402194 0.010833923 -0.01989959 -0.008300958 -0.01286681 -0.009060793 -0.007034727 -0.07102008
0.027019301 0.082339585 0.06233613 -0.034125857 0.08388212 0.046215594 -0.021181434 0.021253105
-0.015397817 -0.012901714 -0.043099802 -0.02716756 0.03469228 -0.021602258 -0.007894759 0.033513103
-0.0063434932 0.046152517 -0.05081814 0.024894824 0.012791929 -0.009377174 -0.05097168 -0.026535993
0.033909418 0.022870304 0.002378259 0.004086546 -0.06377756 -0.082226105 0.0505603 0.012907215
0.000101172605 0.008380636 -0.0360515 -0.19174863 -0.0053332457 -0.05063368 -0.012880094 0.013169976
-0.16403931 0.049438674 0.003234957 -0.03124097 -0.005589318 0.059572194 -0.089606956 0.089785986
-0.11672228 -0.029828325 -0.04996837 0.005833456 -0.016901784 -0.012750477 0.03947056 -0.011930461
-0.04552864 -0.049909145 -0.069500014 -0.0357655 0.07607651 -0.026229184 0.058874324 -0.032326285
0.021041794 -0.072554685 -0.052258633 -0.039313316 0.015974985 -0.023796275 -0.12636362 -0.012986866
-0.016264305 -0.0014751372 -0.0057463264 -0.00898571 -0.08611445 0.06485094 -0.0483069 -0.037852652
0.039512567 -0.072186135 0.0067139864 0.06985481 0.07006935 -0.018326197 0.117775664 0.019365406
-0.053596642 0.068719424 -0.03568465 -0.05752436 0.0046783257 0.007296119 0.0026925935 -0.04999871
0.009583237 0.033679716 -0.06560179 -0.005707283 0.05442338 0.050253976 0.027180761 -0.050013877
0.0006265478 0.0077407593 0.00384497 0.12976937 -0.036967535 0.014956802 -0.0335211 -0.01004837
-0.0561336 -0.025699383 0.016566847 0.058303688 0.0665089 -0.016453184 0.06803796 -0.03358025
-0.031292625 0.005151184 -0.004023396 0.0033154814 0.016801527 0.057108864 -0.00018475938 0.054172818
-0.109432586 -0.022907484 -0.026178772 -0.046948463 0.10373642 0.0047650477 0.0702669 -0.03337526
-0.020507831 -0.049954668 -0.053232722 -0.04528144 -0.028308231 -0.006761521 -0.038877636 0.058133293
-0.043976463 0.0004681676 -0.113115154 0.077903494 -0.10755764 0.044607636 -0.006560998 0.08614301
-0.10078095 0.050963223 -0.009882422 0.021903774 -0.025858369 -0.11151778 0.053410113 -0.02389411
-0.086319186 -0.039195564 -0.05616922 0.0051105907 -0.0058588027 0.013710369 0.052480858 -0.025219472
0.036246557 0.07077651 0.15284677 0.01905137 0.0702554 0.08250772 0.10840835 -0.035428103
-0.04030994 -0.028383922 -0.09216609 -0.009511478 0.03740831 -0.08176419 -0.009661122 0.08309064
-0.015581283 8.204661e-05 -0.18093427 -0.02759019 0.033530034 0.0771307 0.041558474 0.03595642
0.018794842 -0.040967308 -0.019324575 0.015318062 -0.022861471 0.030319666 -0.083148345 0.027261358
-0.07433629 -0.07725589 0.012215591 -0.030077554 -0.01856485 -0.08481284 -0.0023738919 -0.046102062
00000000: efdd 06bd 17e8 f83c 47ed 0c39 a0c3 573c
00000010: b08f 673d b58b 5fbd 702c 66bb a2bf 96bd
00000020: fbbf 6c3d 3687 45bc db34 8abc ac4b fd3b
00000030: ba00 cbba 885e 653b 4447 1bbd ca69 e8bd
00000040: cc7b 83bc 5ae7 a33d 1bfe 8fbc f496 303d
00000050: fb9d 80bd 26a9 40bd 609b d83c 9560 723a
00000060: 5673 03be c35e 943d 7142 b4bb 478a 283c
00000070: d8c3 053d 469e c33d 07fd c13c be70 b7bb
00000080: 4ece df3c 08f8 303d 1579 193d 7a41 e63c
00000090: a68d 703d a44c ad3c 0db8 03be 7ffd 11bc
000000a0: e55d 86bc c480 313c 7704 a3bc be00 08bc
000000b0: 50cf 52bc b873 14bc 9183 e6bb fa72 91bd
000000c0: 9557 dd3c a8a1 a83d 2b54 7f3d 8ec7 0bbd
000000d0: 64ca ab3d 904c 3d3d b084 adbc fe1a ae3c
000000e0: 2047 7cbc b661 53bc 6b89 30bd 818e debc
000000f0: 7e19 0e3d 38f7 b0bc 0559 01bc 0945 093d
00000100: 14dd cfbb 6c0a 3d3d af26 50bd 3bf0 cb3c
00000110: 3d95 513c b8a2 19bc aec7 50bd 0362 d9bc
00000120: 9ae4 0a3d 815a bb3c 91dc 1b3b 6fe8 853b
00000130: cf9d 82bd 2966 a8bd 5118 4f3d c978 533c
00000140: a12c d438 ef4e 093c bdaa 13bd c159 44be
00000150: 82c2 aebb 4365 4fbd 0807 53bc e2c6 573c
00000160: ecf9 27be 3580 4a3d 9301 543b 10ed ffbc
00000170: 9926 b7bb f901 743d da83 b7bd b7e1 b73d
00000180: 170c efbd 885a f4bc a2ab 4cbd 9326 bf3b
00000190: 9c75 8abc 60e7 50bc e2ab 213d fb77 43bc
000001a0: 3d7c 3abd 886d 4cbd 0656 8ebd d87e 12bd
000001b0: 00ce 9b3d 96de d6bc 3426 713d 9168 04bd
000001c0: d75f ac3c 8d97 94bd 260d 56bd 0007 21bd
000001d0: f9dd 823c 68f0 c2bc 7765 01be ddc6 54bc
000001e0: b83c 85bc 6459 c1ba ae4b bcbb cd38 13bc
000001f0: c65c b0bd 92d0 843d 75dd 45bd 620b 1bbd
00000200: eed7 213d 53d6 93bd 0001 dc3b 0a10 8f3d
00000210: 8580 8f3d d220 96bc 5e34 f13d 33a4 9e3c
00000220: 2788 5bbd c5bc 8c3d 112a 12bd aa9e 6bbd
00000230: a44c 993b 4814 ef3b 3976 303b 73cb 4cbd
00000240: 0203 1d3c bef3 093d 3b5a 86bd 2904 bbbb
00000250: 0deb 5e3d 1dd7 4d3d 30aa de3c 5adb 4cbd
00000260: e93e 243a 32a6 fd3b e4fb 7b3b 43e2 043e
00000270: 456b 17bd 600d 753c 6c4d 09bd eba1 24bc
00000280: 59ec 65bd 8387 d2bc 32b7 873c d9cf 6e3d
00000290: d135 883d d4c8 86bc 7c57 8b3d 728b 09bd
000002a0: b22c 00bd 43cb a83b b1d6 83bb 8c48 593b
000002b0: 5ba3 893c fcea 693d f8bb 41b9 51e4 5d3d
000002c0: 311e e0bd 7aa8 bbbc dd74 d6bc 084d 40bd
000002d0: c373 d43d 1e24 9c3b 18e8 8f3d 7fb4 08bd
000002e0: 0a00 a8bc 449d 4cbd 8e0a 5abd 0879 39bd
000002f0: aae6 e7bc c08f ddbb 283e 1fbd 2d1d 6e3d
00000300: aa20 34bd 6474 f539 eba8 e7bd de8b 9f3d
00000310: 2e47 dcbd 7fb6 363d a4fd d6bb bf6b b03d
00000320: 3e66 cebd d0be 503d e2e9 21bc 8b6f b33c
00000330: eed4 d3bc 6f63 e4bd 90c4 5a3d 95bd c3bc
00000340: 1dc8 b0bd 878b 20bd b211 66bd be76 a73b
00000350: 33fb bfbb 75a1 603c 2bf6 563d 1199 cebc
00000360: 4577 143d 46f3 903d dd83 1c3e 9e11 9c3c
00000370: 10e2 8f3d cff9 a83d 3205 de3d 0f1d 11bd
00000380: 091c 25bd 6685 e8bc 93c1 bcbd 08d6 1bbc
00000390: 7539 193d fc73 a7bd af49 1ebc 6d2b aa3d
000003a0: a348 7fbc 7010 ac38 d546 39be d204 e2bc
000003b0: ca56 093d b3f6 9d3d 3839 2a3d 0a47 133d
000003c0: a4f7 993c 56cd 27bd 924e 9ebc 9cf8 7a3c
000003d0: fb47 bbbc f360 f83c ae49 aabd 3653 df3c
000003e0: a03d 98bd 5638 9ebd e723 483c 3465 f6bc
000003f0: 5015 98bc 5bb2 adbd 4c93 1bbb 84d5 3cbd
