demo/weights/convseg_3_1_kernel_0.npy (npy, 131168 bytes, 1 tensors)

array f4 [1, 1, 256, 128]
0	0xbc60db3b	-0.013724144
1	0x3c9adb29	0.018903332
2	0xbd717830	-0.05895251
3	0xbd62263e	-0.05521225
4	0x3d537fc3	0.051635515
5	0x3c7d7109	0.015468844
6	0xbd241953	-0.040063214
7	0xbaf779d9	-0.0018880918
8	0x3ce12417	0.02748303
9	0x3d528050	0.0513919
10	0xbd0f1720	-0.034934163
11	0x3c506884	0.012720231
12	0x3c5184d2	0.0127880145
13	0xbd2a1b8e	-0.041530184
14	0x3d1a4552	0.037663765
15	0xbca6efaf	-0.020377962
16	0xbc987420	-0.01861006
17	0xbd31ec9f	-0.04343855
18	0x3d5ac98f	0.053414878
19	0xbd83a325	-0.06427602
20	0x3c0f4095	0.008743425
21	0xbd616aab	-0.055033367
22	0x3d37cb04	0.044871345
23	0xbcddffea	-0.027099568
24	0xbdbd3d55	-0.09240214
25	0x3cdd9142	0.027046803
26	0x3c6bd5dc	0.01439425
27	0x3c0ce3c6	0.008599227
28	0xbaae85c7	-0.0013315015
29	0xbd3ef91f	-0.0466243
30	0x3cd116a9	0.0255235
31	0xbcf5c74c	-0.030002259
32	0x3d43ddd5	0.047818977
33	0x3be54139	0.0069963005
34	0x39cb866d	0.00038819332
35	0x3be3c466	0.0069509028
36	0xbd41039f	-0.047122594
37	0xbd089485	-0.033344764
38	0x3d783c69	0.060604487
39	0x3cc382f9	0.023866164
40	0x3d18a64d	0.03726797
41	0x394c343b	0.00019474413
42	0x3cabfcb3	0.02099452
43	0x3d0857f0	0.03328699
44	0x3cbb3c54	0.022855915
45	0xbd478468	-0.048710257
46	0x3aac54fb	0.0013147885
47	0x3d2542d2	0.040346928
48	0x3b12ee21	0.0022419768
49	0xbe38deba	-0.18053713
50	0x3bc3dfdf	0.0059776152
51	0x3d058dc8	0.032605916
52	0xbcdeda4d	-0.027203703
53	0xbd38bf46	-0.045104288
54	0x3c21b178	0.009868972
55	0xbd38019f	-0.04492342
56	0x3cda06b3	0.026614523
57	0x3d56c5af	0.05243462
58	0xbd236ff1	-0.039901678
59	0xbb0f9d61	-0.0021913873
60	0x3d73ce2f	0.059522804
61	0x3d577d87	0.052609947
62	0xbd29b920	-0.041436315
63	0xbd71d64b	-0.059042256
64	0xbc196ff5	-0.009365072
65	0xbcd69287	-0.026192917
66	0x3cab6022	0.020919863
67	0xbd56e86d	-0.052467752
68	0x3d9c5408	0.07633215
69	0xbbb6ceb8	-0.005578842
70	0x3c81e96c	0.015858375
71	0x3b796534	0.0038054707
72	0xbca85e80	-0.020552874
73	0x3d716861	0.058937434
74	0xbd0e6211	-0.034761492
75	0xbc464762	-0.01210198
76	0xbd346503	-0.044041645
77	0x3d193e03	0.037412655
78	0x3d3eb669	0.04656068
79	0x3d0da6d7	0.03458294
80	0xbb2662ba	-0.0025388435
81	0x3a0e59ad	0.0005430233
82	0x3cac6b86	0.021047365
83	0x3b111b73	0.0022141605
84	0xbd96cd18	-0.07363337
85	0x3d7a9b53	0.061183285
86	0x3d14d994	0.03634031
87	0xbd63695a	-0.055520393
88	0x3d82040b	0.063484274
89	0xbdbcf190	-0.09225762
90	0xbb164d2a	-0.0022934177
91	0x3d641af2	0.05568976
92	0xbd741fce	-0.059600644
93	0x398068fe	0.00024492288
94	0xbd3c429b	-0.045961957
95	0xbbdf0bd3	-0.0068068295
96	0xbcef912c	-0.029244028
97	0xbd3ffdc1	-0.046872858
98	0xbc4f99fd	-0.012670991
99	0x3c93f11b	0.018059304
100	0xbd0f427e	-0.03497552
101	0xbd5069b7	-0.050882068
102	0xba1f3a77	-0.00060740806
103	0xbd04f1a7	-0.03245702
104	0xbd5cebf8	-0.053935975
105	0xbbcac753	-0.006188312
106	0xbde0ea95	-0.10982243
107	0xbc8193c8	-0.015817538
108	0xbc25115d	-0.0100749405
109	0xbc6991d2	-0.014255958
110	0x3cafd9cc	0.021466158
111	0x3d5c39b2	0.05376596
112	0x3d0461be	0.032319777
113	0xbccb7b7b	-0.024839154
114	0xbcddd13d	-0.027077312
115	0xbc88626b	-0.016648492
116	0xbc8bb889	-0.017055767
117	0xbd09dacf	-0.033655938
118	0x3d1f8c0a	0.03895191
119	0xbcc145d2	-0.023592863
120	0x3d8c478f	0.06849586
121	0xbd434c51	-0.047680203
122	0x3d5e024a	0.0542014
123	0x3b82dfe6	0.003993976
124	0xbc5779c6	-0.013151592
125	0xbced8cc3	-0.028997784
126	0xbab1d8e8	-0.0013568671
127	0x3cdd1289	0.026986377
128	0xbc962d90	-0.018332273
129	0xba1573de	-0.00057011645
130	0xbd20fc69	-0.039303217
131	0xbd4e6266	-0.05038681
132	0xbd07c988	-0.03315118
133	0xbcaedf2d	-0.021346653
134	0xbd4d7d87	-0.05016854
135	0xbc6c2410	-0.014412895
136	0xbcbda11d	-0.023148114
137	0x3a851716	0.0010153975
138	0xbd7ba3bc	-0.061435446
139	0x3d2080c6	0.039185308
140	0x3c0f4899	0.008745336
141	0xbcf70b11	-0.030156644
142	0xbc701512	-0.014653461
143	0x3b431aa4	0.0029770518
144	0xbc9cfcbe	-0.019163486
145	0x3c3e293a	0.011606509
146	0x3ce0f9ad	0.027462805
147	0xbd5a0b2c	-0.05323331
148	0x3b8dceb2	0.0043276185
149	0xbc5e75bf	-0.013577878
150	0x3d17e605	0.037084598
151	0xbcc0283d	-0.023456687
152	0xbda48984	-0.080340415
153	0xbc9439b7	-0.018093927
154	0xbd947935	-0.07249681
155	0xbbabff69	-0.005248953
156	0xbc88c3b3	-0.01669488
157	0xbdc0102d	-0.09378085
158	0x3da43098	0.08017081
159	0xbcf2ec0d	-0.029653573
160	0xbc725029	-0.0147896195
161	0x3d31e3fc	0.043430313
162	0x397b651c	0.00023974892
163	0xba81d800	-0.0009906292
164	0x3b12e17f	0.0022412238
165	0x3b700d02	0.0036628847
166	0x3d870ef0	0.06594646
167	0x3da11460	0.07865214
168	0x3cbeae07	0.023276342
169	0xba4bf3b1	-0.00077801483
170	0xbcf2757f	-0.029597042
171	0xbc86b2d5	-0.016442696
172	0xbd1d1ac2	-0.038355596
173	0xbc4590a6	-0.012058413
174	0xbd1a6e60	-0.037702918
175	0x3994786c	0.0002831848
176	0xbcb937b6	-0.022609573
177	0xbe53d3f7	-0.20686327
178	0x3c3ba0d9	0.011451923
179	0xb8e53c1f	-0.00010930769
180	0xbcc644fd	-0.024202818
181	0xbcd62a72	-0.026143286
182	0xbc48f9c5	-0.012266581
183	0xbca90cbd	-0.020635957
184	0x3d07c020	0.03314221
185	0xbcb16925	-0.021656582
186	0x3c14087c	0.009035226
187	0x3c227831	0.009916351
188	0xbbe59b75	-0.0070070573
189	0x3d30b8d7	0.043145027
190	0xbd105b44	-0.035243288
191	0xbcb9347f	-0.02260804
192	0xbd814072	-0.0631112
193	0xbd060491	-0.0327192
194	0xbc708616	-0.014680406
195	0xbe2ded08	-0.16984951
196	0x3d88d410	0.06681073
197	0x3b915b09	0.004435901
198	0x3a96a806	0.0011494167
199	0x3b9279ce	0.0044700867
200	0xbd45b4fd	-0.048268307
201	0xbd037fc4	-0.03210427
202	0xbc81c5e2	-0.015841428
203	0xbd469c94	-0.04848917
204	0xbbd9736e	-0.0066360747
205	0x3c90142c	0.017587744
206	0x3c838caf	0.016058294
207	0xbc6755f8	-0.014119618
208	0x3c81a4f7	0.015825732
209	0x3c11adb2	0.00889151
210	0x3cc86de3	0.02446646
211	0xbaeddc01	-0.0018147231
212	0xbd66bb19	-0.056330774
213	0x3bd5a9e0	0.006520495
214	0x3c1b79e2	0.009489508
215	0xbdabca02	-0.08388139
216	0x3d42d94d	0.047570515
217	0xbd3a9a4a	-0.045557298
218	0x3c927944	0.01788009
219	0xbb7e5787	-0.0038809495
220	0xbddb2498	-0.10700339
221	0xbd176f75	-0.036971528
222	0xbcf0d03b	-0.029396167
223	0xbd5234ca	-0.051319875
224	0xbbcedf24	-0.0063132215
225	0xbd3b10c7	-0.045670297
226	0x3d25d11f	0.040482637
227	0x3c582f28	0.013194837
228	0xbd2945ba	-0.041326262
229	0xbcd17c6a	-0.02557202
230	0xbdadee0e	-0.08492671
231	0xbd4edd30	-0.05050391
232	0xbd0851a5	-0.033280987
233	0xbd2fcdf6	-0.04292103
234	0xbe03802f	-0.12841867
235	0xbbfba4b7	-0.0076795476
236	0xbb88ff38	-0.004180815
237	0xbceeafb3	-0.029136514
238	0xbb3a41d3	-0.0028420582
239	0x3d5ccf46	0.05390861
240	0x3d0b074b	0.033942502
241	0xbc68c9d8	-0.01420828
242	0x3c4e170f	0.01257874
243	0xbd74503a	-0.059646823
244	0x3b836104	0.004009368
245	0xbca7e5fe	-0.020495411
246	0x3c9c4c4a	0.019079346
247	0xbd6cf8d0	-0.057854474
248	0x3db7ee7d	0.08981035
249	0xbd866cf9	-0.06563754
250	0xbab3d8e4	-0.0013721255
251	0xbd1cb087	-0.038254287
252	0xbca6db49	-0.020368235
253	0xbc26fb7f	-0.010191797
254	0xbae53807	-0.0017488011
255	0xbc43a51a	-0.011941219
