demo/weights/conv2_2_bias_0.npy (npy, 592 bytes, 1 tensors)

array f4 [128]
0.15122795 -0.08845985 0.19141701 0.08765867 0.04031545 -0.049403444 -0.0064181658 -0.13474245
-0.11826574 -0.11274586 -0.12964474 -0.16099685 0.043765604 0.07420867 0.116619416 0.31143218
0.07876413 -0.046730444 0.17141022 0.09374522 -0.25419828 0.13172214 -0.112527 0.13789071
-0.09180787 0.19351988 0.054865297 -0.035094228 -0.21655549 -0.12768938 0.124316774 -0.11554891
0.07816753 0.19894224 0.07324369 0.23459709 0.06602006 0.042053815 0.13242751 0.020302463
-0.21515074 0.13859268 -0.05091685 -0.13143912 0.018307209 -0.031904746 -0.0649155 -0.029759359
-0.056602795 -0.17274293 0.08459224 -0.02787587 -0.08594118 -0.07957791 -0.04736086 0.009582953
0.072010614 -0.10921154 -0.005779019 -0.0035000015 0.047172762 0.09737798 0.21042363 -0.06472122
0.050811816 -0.0025816045 -0.0056895814 -0.088168845 0.002177711 -0.16657957 0.10092585 0.11016055
-0.07852552 -0.06448089 0.075758174 0.0643041 0.19385675 0.19433184 -0.019479124 -0.041183554
-0.09576156 0.17110386 -0.256854 -0.1981534 -0.29547596 0.04589964 0.07003111 0.15628953
0.07671973 -0.1119052 -0.020507934 0.03097259 -0.17581046 -0.04560496 0.14048293 0.09278072
0.048108812 0.0585479 -0.011514751 -0.08109984 -0.0076338477 -0.071387075 -0.19977938 0.3644165
-0.25829607 -0.12295762 -0.023592412 0.09292104 -0.049201578 0.020513376 -0.01061107 0.003950997
0.026397867 -0.03949755 0.022613809 -0.042888436 0.083262645 0.13777718 0.036790464 -0.16491027
-0.21353863 0.09288897 -0.143331 0.11053076 -0.18034889 -0.1528281 0.0020648106 -0.036470752
00000000: 80db 1a3e 702a b5bd d202 443e 6486 b33d
00000010: d021 253d 445b 4abd 7a4f d2bb edf9 09be
00000020: 4f35 f2bd 4de7 e6bd 97c1 04be 5cdc 24be
00000030: 9043 333d b7fa 973d 29d6 ee3d 0a74 9f3e
00000040: 174f a13d 6c68 3fbd 2986 2f3e 7efd bf3d
00000050: 4726 82be 2be2 063e 8e74 e6bd 3933 0d3e
00000060: c405 bcbd 132a 463e 6fba 603d f7be 0fbd
00000070: b9c0 5dbe 01c1 02be cb99 fe3d e8a4 ecbd
00000080: 4c16 a03d 84b7 4b3e ca00 963d 383a 703e
00000090: 8635 873d 9f40 2c3d 149b 073e 5a51 a63c
000000a0: 7a50 5cbe 3deb 0d3e 308e 50bd fa97 06be
000000b0: 00f9 953c 8dae 02bd 6bf2 84bd e6c9 f3bc
000000c0: 55d8 67bd 86e3 30be b23e ad3d f05b e4bc
000000d0: ee01 b0bd bef9 a2bd 76fd 41bd d101 1d3c
000000e0: 4d7a 933d 4daa dfbd ed5d bdbb 4860 65bb
000000f0: 3a38 413d 1b6e c73d 4b79 573e 8f8c 84bd
00000100: 0d20 503d 2330 29bb ab6f babb de91 b4bd
00000110: eeb7 0e3b d693 2abe 36b2 ce3d db9b e13d
00000120: fdd1 a0bd 8f0e 84bd 1a27 9b3d deb1 833d
00000130: 6282 463e edfe 463e af92 9fbc 16b0 28bd
00000140: a31e c4bd da35 2f3e 5e82 83be bae8 4abe
00000150: a048 97be 4301 3c3d 786c 8f3d 5d0a 203e
00000160: 3c1f 9d3d 8e2e e5bd 4100 a8bc 3bba fd3c
00000170: a807 34be 44cc 3abd c2da 0f3e d103 be3d
00000180: bf0d 453d eccf 6f3d 5ea8 3cbc ac17 a6bd
00000190: 5b25 fabb 6333 92bd f792 4cbe cd94 ba3e
000001a0: 623f 84be 34d1 fbbd e044 c1bc 634d be3d
000001b0: 9887 49bd ab0b a83c 0eda 2dbc 5d77 813b
000001c0: 5740 d83c 2fc8 21bd 9840 b93c c9ab 2fbd
000001d0: 9b85 aa3d 7615 0d3e 99b1 163d 3dde 28be
000001e0: dfa9 5abe 933c be3d 5dc5 12be f35d e23d
000001f0: 61ad 38be f87e 1cbe c651 073b 5b62 15bd
