demo/weights/conv2_2_kernel_0.npy (npy, 589920 bytes, 1 tensors)

array f4 [3, 3, 128, 128]
00000000: fdea 1c3c 4214 66bd 7389 253d 5057 073d
00000010: caea 913c bfa1 05bd c2e9 5dbc dcb7 32bb
00000020: cfc6 93bc a353 013d 8e7e 913d 4708 fb3b
00000030: fe6f 2dbc f32d 383d 3a50 483b 2665 7cbc
00000040: f1b6 043d ba45 0cbc f89b 43bd 4d6b 85bd
00000050: 960f 343d 2d5d 933d c349 2f3d 2067 8bbb
00000060: ab28 5ebd 40ba 76bb a7dd 92bd 042c 033d
00000070: 6e42 23bc 8b3b 43bc f8b7 af3d f9ba 25be
00000080: a245 f23c 018c 3a3b 480b 1bbd 3985 943d
00000090: 80df 58bc 488b efba bbf3 ad3d 12af 9d3d
000000a0: c558 a93d 3f51 08bd d73b 1e3d e4a3 73bd
000000b0: 214c 6abc 2f5e fa3b 398b 1a3b f3d6 abbc
000000c0: bd1b 343d 2ce0 d0bc a9da 453d 9426 dc3b
000000d0: 4312 0cbc 609f 873d e538 a43d 7782 473c
000000e0: 82eb 6e3c 226e e0bb f882 73bd 8e29 44bd
000000f0: 2e17 053d 596a 80bc 1382 243d 86f5 3e3d
00000100: 78f5 a7ba 641f d93c b21f a4bc 46c9 20bc
00000110: aeaa bdbc 4acf 143d 072e eebc af5b 3e3d
00000120: b4db 8e3c 143e a03c b239 53bd 7f06 b13c
00000130: f4ae afbc 1686 49bd a36a 41bd 5879 203c
00000140: c9b2 5ebd 73c9 0fbd 15fe 7abd d1a2 40bc
00000150: 6388 b53c aff6 93bc 4a3d bb3c 9b55 913c
00000160: 0839 343b 142d 9dbb bbd4 fd3c ae04 76bc
00000170: b5cd 98bd a75c 1d39 505b 093d e6e4 c63d
00000180: 8b9c 35bc ba53 ebbc cbaa 86bb 4aa3 573d
00000190: 4b6f 0dbb b4f0 abbd 1094 32bd b243 f4bc
000001a0: 2159 773c 0714 fa3d 46bd 993d f4f4 25bd
000001b0: 2e74 b03d 3467 cabb 87dd 24bd 3ad8 21be
000001c0: 9db9 2b3a cf2e dc3b 35b5 0fbd 1ec8 923c
000001d0: a433 6ebd 5f54 ec3b 3d14 ef3c 369b b239
000001e0: b3db 5cbd b752 c1bc 6bce e5bd 86e2 13bd
000001f0: ee5a ab3d 016c 13bd 9a14 fbbc 7321 07bc
00000200: 6c26 b6bd 65a2 9cbd 25db 0cbd eecc bd3d
00000210: 85a8 b93d 73d7 37bd 955a dabd 65b3 afbd
00000220: c5d2 64bd 9ea1 ecbc c4d9 073d f2a3 87bd
00000230: dbea ce3d 648e babd 09f8 ba3c 8219 90be
00000240: 55cf 25be 6406 09bd af5f 42bd 1149 53bd
00000250: 8e11 1d3b afbb c9bd 709d a4bd 72b9 09be
00000260: 9311 563d c282 ffbd c8ad 9d3d 4de1 1ebd
00000270: 8ab7 2c3e af25 2abe 5dbd 36bd 2b12 89be
00000280: ebc4 633d 0f23 553d fb32 383d c82b af3d
00000290: 0bba 90bc 7111 34be a65c ebbd bba4 0cbc
000002a0: 91ec d03d 8581 3bbe f40b e53c 5be6 b4bc
000002b0: e256 eebc fbfd 2cbd 4a02 d8bd c145 01bd
000002c0: acea 993c a461 be3d dc92 0a3e 2ac9 18be
000002d0: b2fc 13be 8722 373d 8841 ef3c 1fe2 66bd
000002e0: e4c1 bb3c da5a d2bb 8974 c4bd 88d9 8ebc
000002f0: 6c0a d8bd c7d0 90bd 56b2 c239 ac4f 41be
00000300: 9a06 9b3b bc9a f93c 99f7 a6bc 78ad 28be
00000310: bc44 01be 81c0 c5bb 99b5 21be 7381 4dbd
00000320: 4eeb 35be 3c3e f3bd 3999 41bd e23a 9bbc
00000330: 09a8 7cbd 9f03 53bd 5f8a 9ebd d247 c0bd
00000340: 0964 c6bd 2d73 643b 2d84 95bd 0e85 8dbd
00000350: 0d8b 3dbe da27 033e 2f36 14be ea93 86be
00000360: 16a2 cebc 7c91 eb3b b3f4 e73d be1e 08bd
00000370: 2f3e 543d 8a6c 12bd ce89 afbc 03ab 01be
00000380: 01b6 ecbb 1990 a43c 98f3 163d 42a2 9dbd
00000390: 27d9 0b3d 85b5 5dbe c716 f1bd a49d f3bd
000003a0: c771 0cbe 6d5c ea3d 6e26 79bd eab6 7abc
000003b0: fd6f 86bd adf9 b53d 6385 02be 6bb5 383c
000003c0: eb23 3d3c 1565 eebc a215 b8bc 33ef b4bd
000003d0: d1f2 0b3d c187 693c f95d f73c d458 92bc
000003e0: 9dd1 7cbd f55a e7bd 4f68 d5bd 4aea 84bd
000003f0: be54 01bb b6d8 38bc 0e2a 57be f1e4 343d
0.00957751 -0.056171663 0.040414285 0.033042252 0.017812151 -0.032624956 -0.013544502 -0.0027270233
-0.018039135 0.031573903 0.071042165 0.007660899 -0.010585783 0.044965696 0.0030565397 -0.015404975
0.03240103 -0.008561546 -0.047756165 -0.065146066 0.043960176 0.07195506 0.042794954 -0.004254237
-0.054238003 -0.0037647635 -0.07171183 0.0320244 -0.009964569 -0.011916052 0.08580011 -0.16184606
0.02957422 0.0028464796 -0.037852556 0.07251973 -0.01323688 -0.0018275762 0.084937535 0.07699408
0.082688846 -0.033280607 0.038631286 -0.05948247 -0.014300377 0.007640622 0.0023581518 -0.02097652
0.043971766 -0.025497518 0.048304234 0.006718466 -0.008549276 0.06622195 0.08018664 0.012177101
0.014582517 -0.0068490664 -0.059451073 -0.047891192 0.03249281 -0.01567571 0.04016311 0.04662087
-0.0012814244 0.026504226 -0.020034645 -0.009813612 -0.023152675 0.0363305 -0.029074682 0.046474155
0.017438747 0.019560851 -0.051568694 0.021609543 -0.021445729 -0.04920014 -0.047220837 0.009794556
-0.05436972 -0.035104226 -0.061277468 -0.011757568 0.02215976 -0.018061964 0.022856373 0.017741015
0.0027499814 -0.0047966335 0.030985227 -0.015015764 -0.074611105 0.00015007202 0.033534348 0.09711628
-0.011084686 -0.028726447 -0.0041097156 0.05264596 -0.0021581228 -0.0839552 -0.043598235 -0.029817436
0.015096934 0.12210851 0.07506804 -0.04051681 0.086159095 -0.0061768536 -0.040250327 -0.1580514
0.0006550791 0.006719447 -0.035084922 0.017917689 -0.058154717 0.0072122063 0.029184455 0.00034066447
-0.05392046 -0.023599012 -0.11221012 -0.0361047 0.08366953 -0.035991672 -0.030649472 -0.008247721
-0.08894047 -0.07648162 -0.03438868 0.09267603 0.09065346 -0.044883203 -0.106618084 -0.08579139
-0.055865068 -0.028885659 0.03316666 -0.06623067 0.10103389 -0.0910919 0.02282335 -0.2814446
-0.16192372 -0.03345336 -0.047454532 -0.051583353 0.0023966762 -0.09850251 -0.08037841 -0.13449648
0.052262854 -0.12476112 0.07699162 -0.038789082 0.1686689 -0.16615938 -0.044614185 -0.26771674
0.055607717 0.052035388 0.044970494 0.085532725 -0.017666837 -0.17584778 -0.11492281 -0.008584197
0.102013715 -0.18311127 0.027959801 -0.022082498 -0.029094163 -0.042234402 -0.105473116 -0.031560663
0.018788658 0.09295967 0.13532585 -0.14920488 -0.14451864 0.044710662 0.029206052 -0.05636799
0.022919603 -0.0064195218 -0.0959254 -0.017437711 -0.10548863 -0.07071071 0.00037135434 -0.18878049
0.0047310116 0.03046929 -0.020381736 -0.16472423 -0.12623876 -0.006034911 -0.1579193 -0.05017228
-0.17765543 -0.11877105 -0.047265265 -0.018948976 -0.06168369 -0.051517125 -0.07741236 -0.09388699
-0.09687049 0.003485869 -0.07300601 -0.06910144 -0.18510075 0.12808171 -0.14473794 -0.26284724
-0.025223773 0.007188974 0.113259695 -0.033232443 0.051817115 -0.035748042 -0.021428015 -0.12662892
-0.007223845 0.020088242 0.036853403 -0.07696964 0.03414264 -0.21651275 -0.117719226 -0.11895302
-0.13715278 0.1144341 -0.060827665 -0.015302399 -0.06564329 0.088855125 -0.12746195 0.011273722
0.011544208 -0.029100934 -0.022471253 -0.08834686 0.034167115 0.014253558 0.030196177 -0.017864622
-0.06172334 -0.112966456 -0.10420286 -0.064899996 -0.0019734348 -0.011282137 -0.21012136 0.044163648
