demo/weights/conv2_1_kernel_0.npy (npy, 294992 bytes, 1 tensors)

array f4 [3, 3, 64, 128]
-0.07515601 -0.06530542 0.03463708 -0.0041866903 0.0015329336 0.115487695 -0.02061865 -0.01240331
-0.0588501 -0.0141207045 0.007986577 -0.045798786 -0.0020468566 -0.04386803 -0.043955628 0.004589439
-0.056357212 0.13098864 -0.052591015 0.0025351823 -0.006695118 -0.019120617 -0.027107568 -0.0103866095
-0.018747348 0.07867771 -0.051207583 0.0025312516 0.010420792 0.11970304 -0.04696511 -0.041133244
-0.05677723 -0.056337986 0.0130179 -0.042696044 0.0069143395 0.013467989 -0.06847707 -0.11432527
0.03304901 0.038137104 0.06540445 -0.02960744 -0.008592397 0.016597997 -0.031527672 -0.094628215
0.0060743783 -0.016562352 -0.036693282 -0.06479652 -0.08393323 -0.06840272 -0.008166383 -0.025183963
0.023315296 -0.022155067 0.0145649165 -0.055845395 0.0044453153 -0.09025828 -0.011604236 -0.07689865
0.08988798 0.114999026 0.0049698655 -0.0424065 -0.018331455 -0.02803903 -0.05949573 -0.023506142
-0.016153665 0.0357037 0.03356864 -0.029599117 0.040087935 0.011213879 -0.040895697 0.067277536
0.012430214 0.124423794 0.09653527 0.0673305 0.00845999 0.02130911 -0.015203552 0.0154376505
-0.038856216 -0.050535135 -0.07474033 0.00142657 0.020540932 -0.06426522 0.018457988 -0.0014683565
-0.1038574 0.008508502 -0.0011683145 0.05718805 -0.019921407 -0.017287478 0.0022310596 -0.008562782
-0.0073854686 -0.02105662 0.12024213 0.08070167 0.008509408 0.06984305 -0.02710398 -0.017739214
0.0060948236 0.017342381 -0.028685043 -0.032842234 0.0021939233 -0.0064167166 -0.046376836 -0.06947872
-0.08179319 -0.08592011 -0.011539351 0.0010893287 0.061834756 0.055262547 0.056454945 -0.073506854
-0.020793974 -0.012895556 -0.010164633 -0.012892242 -0.009072294 -0.021570165 0.06725226 -0.03576025
-0.09167786 -0.07586014 -0.0253069 0.019424818 -0.023845457 -0.012349424 -0.0031003575 0.0009150465
0.0038145971 0.039319 0.03643351 0.032365154 0.031011 0.04946731 -0.0050869556 -0.01500332
-0.048839897 -0.0021245931 -0.046968836 0.00397925 0.019545803 0.044996545 0.024705991 -0.05918715
-0.0027116444 -0.010582485 -0.036546927 0.05742285 -0.019405501 -0.0054625818 0.005941504 -0.026770415
0.03845288 -0.041006353 0.03653026 -0.0052198134 -0.0009243938 0.008248421 -0.03293345 -0.006893765
0.10706852 0.016245138 0.054440554 -0.03217858 -0.052739818 -0.095247775 -0.0034478428 -0.016086027
-0.034163184 -0.026255975 -0.0873316 -0.03257812 0.043534145 0.04813955 0.024466617 0.03535789
-0.002194795 0.09770956 0.0035092342 -0.008270376 -0.020652661 -0.03924533 0.028754845 0.05386515
-0.04048842 0.0044731344 -0.00201256 0.022915352 -0.028501242 0.059544902 -0.015754065 0.11327191
0.057975587 -0.029678792 0.038583998 -0.012739901 -0.066105664 0.0065166173 -0.011515681 0.013023687
-0.02130682 -0.061090346 -0.0597219 0.013794743 -0.04208924 -0.04005326 0.019844264 -0.0023412588
0.024504116 0.016591279 0.00035665938 -0.059268877 0.01211009 -0.012041905 -0.101034425 -0.009228217
0.048729103 -0.043676414 0.012959455 0.072983764 -0.039214775 0.11473369 -0.012812711 -0.0010555419
0.08816328 -0.02354514 -0.004215916 0.049667623 0.013175915 -0.04958894 -0.008883858 0.03598478
-0.011645693 -0.08659001 0.026685447 0.011523623 0.07375114 -0.025700249 0.0007482972 -0.04331271
00000000: 65eb 99bd d9be 85bd 9cdf 0d3d 8130 89bb
00000010: b7ec c83a d084 ec3d 71e8 a8bc 4137 4bbc
00000020: cd0c 71bd 875a 67bc 22da 023c 8297 3bbd
00000030: 8e24 06bb f7ae 33bd d10a 34bd 0163 963b
00000040: d2d6 66bd e321 063e ad69 57bd 4d25 263b
00000050: b862 dbbb d7a2 9cbc b110 debc 992c 2abc
00000060: 0a94 99bc c721 a13d 0bbf 51bd 5be3 253b
00000070: f8bb 2a3c de26 f53d 7d5e 40bd 557b 28bd
00000080: 3e8f 68bd a9c2 66bd 0849 553c 0ce2 2ebd
00000090: af91 e23b d7a8 5c3c b53d 8cbd 5e23 eabd
000000a0: 665e 073d a735 1c3d c5f2 853d 4d8b f2bc
000000b0: 20c7 0cbc 86f8 873c 2923 01bd 70cc c1bd
000000c0: 940b c73b c5ad 87bc b24b 16bd 0ab4 84bd
000000d0: 2fe5 abbd ba16 8cbd 4bcc 05bc 994e cebc
000000e0: b8ff be3c 8b7e b5bc b0a1 6e3c 24be 64bd
000000f0: 02aa 913b 55d9 b8bd b21f 3ebc 0a7d 9dbd
00000100: 3017 b83d 9c84 eb3d 41da a23b 70b2 2dbd
00000110: d92b 96bc 1cb2 e5bc cbb1 73bd f48f c0bc
00000120: b154 84bc 0b3e 123d 457f 093d d979 f2bc
00000130: 3f33 243d 6bba 373c 3f82 27bd cec8 893d
00000140: 19a8 4b3c e7d1 fe3d 49b4 c53d 93e4 893d
00000150: c59b 0a3c 7190 ae3c 5218 79bc 33ee 7c3c
00000160: b227 1fbd eefd 4ebd 7511 99bd bffb ba3a
00000170: 7545 a83c 7c9d 83bd 3535 973c de75 c0ba
00000180: 30b3 d4bd 3e67 0b3c 2122 99ba 043e 6a3d
00000190: 3832 a3bc 789e 8dbc f836 123b e94a 0cbc
000001a0: cd01 f2bb ef7e acbc 8141 f63d eb46 a53d
000001b0: 0b6b 0b3c df09 8f3d 2a09 debc d451 91bc
000001c0: 16b7 c73b 9c11 8e3c e5fc eabc 9485 06bd
000001d0: edc7 0f3b 5243 d2bb a3f5 3dbd dc4a 8ebd
000001e0: 3083 a7bd e2f6 afbd 8c0f 3dbc cec7 8e3a
000001f0: 7146 7d3d fb5a 623d 4d3d 673d c38a 96bd
00000200: 2058 aabc e247 53bc 9089 26bc fb39 53bc
00000210: f6a3 14bc eab3 b0bc 8ebb 893d 5779 12bd
00000220: 9ac1 bbbd 905c 9bbd 6a50 cfbc cc20 9f3c
00000230: 8c57 c3bc 3d55 4abc 5e2f 4bbb bbdf 6f3a
00000240: 52fe 793b f60c 213d 4e3b 153d 5391 043d
00000250: c80a fe3c 3c9e 4a3d 7ab0 a6bb 7cd0 75bc
00000260: 580c 48bd c23c 0bbb 6562 40bd 5e64 823b
00000270: 851e a03c 4c4e 383d 3864 ca3c 3a6e 72bd
00000280: d8b5 31bb 2962 2dbc 3bb2 15bd 3934 6b3d
00000290: 49f8 9ebc 75ff b2bb f3b0 c23b a14d dbbc
000002a0: c480 1d3d 47f6 27bd c1a0 153d f80a abbb
000002b0: 0553 72ba 6324 073c 3ae5 06bd 18e5 e1bb
000002c0: bd46 db3d 8614 853c 0ffd 5e3d b0cd 03bd
000002d0: b505 58bd 4411 c3bd 34f5 61bb d8c6 83bc
000002e0: b2ee 0bbd c516 d7bc e9da b2bd a270 05bd
000002f0: dc50 323d fa2d 453d 376e c83c 6fd3 103d
00000300: 8dd6 0fbb f31b c83d 2efb 653b 7980 07bc
00000310: c52f a9bc b6bf 20bd 488f eb3c b4a1 5c3d
00000320: 2fd7 25bd 5f93 923b 27e5 03bb fab8 bb3c
00000330: 707b e9bc 5be5 733d ab0e 81bc 1afb e73d
00000340: cf77 6d3d f020 f3bc 410a 1e3d 05bb 50bc
00000350: 6862 87bd 5989 d53b 44ac 3cbc 4d61 553c
00000360: a48b aebc df39 7abd f39e 74bd 5903 623c
00000370: c465 2cbd e30e 24bd 7090 a23c ce6f 19bb
00000380: dbbc c83c 6fea 873c 03fe ba39 ecc3 72bd
00000390: 6669 463c 694b 45bc 23eb cebd f331 17bc
000003a0: 2b98 473d 0ae6 32bd e553 543c 8378 953d
000003b0: ac9f 20bd 7ff9 ea3d 68ec 51bc 1c5a 8aba
000003c0: f38e b43d bde1 c0bc ab25 8abb 4770 4b3d
000003d0: cbdf 573c c61d 4bbd 9a8d 11bc c764 133d
000003e0: 94cd 3ebc 1a56 b1bd 709b da3c 94cd 3c3c
000003f0: d60a 973d 5489 d2bc 6029 443a ab68 31bd
