demo/weights/convseg_1_1_bias_0.npy (npy, 592 bytes, 1 tensors)

array f4 [128]
0.12949891 0.03100649 -0.110597916 -0.13101038 -0.031088691 -0.07669182 -0.30548084 0.05095293
-0.32148597 0.23591761 -0.023250122 0.055725906 -0.033386383 0.03193882 -0.18354951 0.09838343
0.09396426 0.094045244 -0.070971474 -0.11735879 0.09657019 -0.2901239 0.13260584 -0.08024426
-0.19712515 -0.02516777 -0.14712769 -0.06916755 -0.011941396 -0.057998654 0.0372115 0.058113035
-0.06448648 -0.26300105 0.12900735 0.116946205 0.11316401 -0.10249463 -0.11436417 0.015922004
0.0382501 0.10084594 0.1338399 -0.32899463 -0.02554018 0.10734853 0.046284057 -0.19471812
-0.10473019 -0.30299556 0.043647576 -0.008840582 -0.022671117 -0.3271451 0.09559342 -0.02077619
0.15748222 0.080035225 0.14711851 0.14970121 0.006938206 0.19299667 -0.051462162 0.16462132
0.17905496 -0.019393973 0.01156472 0.021375792 -0.009000019 -0.755819 0.11992704 0.10999235
0.2158638 0.07772126 0.0005255513 -0.16057263 0.01455767 0.22400601 -0.12356324 0.06797483
-0.18419081 -0.22139567 0.17755571 0.14935872 -0.16081266 -0.050648637 0.02573363 -0.018181885
0.118487686 -0.038837593 -0.095461674 -0.09508789 -0.13073723 -0.21164191 -0.067093596 -0.009737137
-0.055761788 0.06476706 -0.00509957 0.09317974 0.067781925 0.03320165 0.023650855 -0.014272749
0.09821279 0.07885372 -0.018286679 0.016981324 0.09208108 0.023592819 -0.03192723 0.052199874
0.0060826745 0.046584938 0.35489228 -0.03337174 -0.017634617 -0.009223438 0.058920484 0.0126211075
-0.20019077 0.022212513 -0.006516733 0.061453227 0.06379922 0.017339192 -0.0026513713 0.22940582
00000000: 5d9b 043e 5301 fe3c 2981 e2bd 9627 06be
00000010: b6ad febc 9a10 9dbd fc67 9cbe 05b4 503d
00000020: cf99 a4be 6394 713e 0a77 bebc d940 643d
00000030: 29c0 08bd 48d2 023d 67f4 3bbe 407d c93d
00000040: 5570 c03d cb9a c03d 7e59 91bd ce59 f0bd
00000050: 97c6 c53d 1f8b 94be d3c9 073e 1a57 a4bd
00000060: 2ddb 49be a42c cebc a4a8 16be b7a7 8dbd
00000070: d8a5 43bc ff8f 6dbd 166b 183d ef07 6e3d
00000080: 7d11 84bd 13a8 86be 811a 043e 7e81 ef3d
00000090: 88c2 e73d b4e8 d1bd c337 eabd dd6e 823c
000000a0: 23ac 1c3d 5188 ce3d 540d 093e fc71 a8be
000000b0: a439 d1bc 8cd9 db3d 5a94 3d3d 3064 47be
000000c0: c87c d6bd 3c22 9bbe cdc7 323d 17d8 10bc
000000d0: c7b8 b9bc 907f a7be 7cc6 c33d d432 aabc
000000e0: 0543 213e 82e9 a33d 3ca6 163e 464b 193e
000000f0: e459 e33b eba0 453e fdc9 52bd 7e92 283e
00000100: 2f5a 373e 1ce0 9ebc f479 3d3c 491c af3c
00000110: d174 13bc 5b7d 41bf 4f9c f53d ab43 e13d
00000120: 660b 5d3e 532c 9f3d 27c5 093a 276d 24be
00000130: 4b83 6e3c d561 653e b90e fdbd 6336 8b3d
00000140: 849c 3cbe 8cb5 62be 2ad1 353e 7ef1 183e
00000150: 13ac 24be f274 4fbd 55cf d23c 2df2 94bc
00000160: aca9 f23d 2b14 1fbd 6981 c3bd 71bd c2bd
00000170: fbdf 05be a8b8 58be 5e68 89bd 8388 1fbc
00000180: 7966 64bd 98a4 843d 4b1a a7bb 05d5 be3d
00000190: 40d1 8a3d 74fe 073d 70bf c13c 40d8 69bc
000001a0: ca23 c93d 0f7e a13d f2cd 95bc 6b1c 8b3c
000001b0: 0195 bc3d ba45 c13c 21c6 02bd 89cf 553d
000001c0: 2c51 c73b d9cf 3e3d 71b4 b53e ceb0 08bd
000001d0: 7976 90bc e71d 17bc 9b56 713d c3c8 4e3c
000001e0: cffe 4cbe 04f7 b53c 528a d5bb 61b6 7b3d
000001f0: 2aa9 823d ec0a 8e3c a1c2 2dbb 5ce9 6a3e
