demo/weights/ori_1_2_kernel_0.npy (npy, 46160 bytes, 1 tensors)

array f4 [1, 1, 128, 90]
0	0x3d34cb11	0.04413897
1	0x3da23599	0.07920379
2	0x3d676b10	0.056498587
3	0xbc77563e	-0.015096245
4	0x3d9484f8	0.07251924
5	0x3d8d5045	0.06900076
6	0x3d43b62c	0.047781155
7	0x3e0c611e	0.13708922
8	0x3dc1c9a1	0.09462286
9	0x3d9e2315	0.07721535
10	0x3dd765d6	0.105174705
11	0x3dff2dae	0.124598846
12	0x3e1295b4	0.1431492
13	0x3d4b7df4	0.049680665
14	0x3c91ce39	0.01779853
15	0x3d64e339	0.05588076
16	0x3e823abd	0.2543544
17	0x3e6c6eaa	0.2308909
18	0x3e0206ea	0.1269795
19	0x3e613f37	0.21996771
20	0x3e269e48	0.16271317
21	0x3d9f5631	0.077801116
22	0x3e891f00	0.26781464
23	0x3e3a62d4	0.18201762
24	0x3e735ffd	0.23767085
25	0x3e093b55	0.1340154
26	0x3e38d51f	0.18050049
27	0x3e436c11	0.19084193
28	0x3e5ec6c2	0.21755508
29	0x3e57d894	0.21078712
30	0x3e05ff05	0.13085563
31	0x3dfce1de	0.12347768
32	0x3e2dbb6f	0.16966031
33	0x3e149c5f	0.14512776
34	0x3d6d2b80	0.057902813
35	0x3e183c2a	0.14866701
36	0x3e2781d2	0.16358116
37	0x3e09a37d	0.13441272
38	0x3e0227f8	0.1271056
39	0x3cf43249	0.029809134
40	0x3e0c1ef7	0.13683687
41	0x3c6db1d6	0.014507731
42	0x3d32c6e3	0.043646704
43	0xba712967	-0.000919959
44	0x3e07566a	0.13216558
45	0xbd0db500	-0.034596443
46	0xbd942853	-0.07234254
47	0xbc267bf9	-0.010161393
48	0xbdd395db	-0.10331317
49	0x3ceee4c6	0.029161822
50	0xbd86df33	-0.065855406
51	0x3de4a387	0.11164003
52	0x3b2dcb10	0.002651874
53	0x3b79f039	0.0038137569
54	0x3d6e6472	0.05820126
55	0x3e21ae60	0.15789175
56	0x3e0c2a7b	0.1368808
57	0x3e294167	0.16528855
58	0x3df42926	0.11921911
59	0x3e732c8c	0.23747462
60	0x3e4912e6	0.19636115
61	0x3e103b1a	0.14085045
62	0x3e038123	0.1284223
63	0x3e11be56	0.14232764
64	0x3e1e1053	0.15435915
65	0x3dd2130e	0.10257541
66	0x3e23f08d	0.16009732
67	0x3cccd364	0.025003143
68	0x3de1edb9	0.1103167
69	0x3e3c53d2	0.1839135
70	0xb971024f	-0.00022984411
71	0x3e044411	0.1291659
72	0xbc50ce85	-0.012744551
73	0x3d767e69	0.060179148
74	0xbcaa7909	-0.020809667
75	0xbcb103c8	-0.021608248
76	0xbbae4555	-0.0053183236
77	0xb8cae538	-9.674806e-05
78	0x3c674faf	0.014118119
79	0x3daa3de0	0.08312583
80	0x3dc89fe2	0.0979612
81	0x3d1b476e	0.037909918
82	0x3de48319	0.111578174
83	0x3e10d4e8	0.14143717
84	0x3e2499d7	0.1607431
85	0x3cb15c31	0.021650406
86	0x3e29d035	0.16583331
87	0x3dd143b9	0.10217995
88	0x3e0201de	0.12696025
89	0x3c499ead	0.012305898
90	0xbd534de5	-0.051587958
91	0xbdcd8a8e	-0.10036193
92	0xbd9d097c	-0.076678246
93	0xbd91aa6b	-0.07112583
94	0xbda113c4	-0.07865098
95	0xbd98cbe2	-0.074607626
96	0x3c80ef9e	0.015739258
97	0x3d91922d	0.07107959
98	0xbca297d1	-0.019847782
99	0x3c835821	0.016033234
100	0xba826d18	-0.0009950725
101	0x3ccf7995	0.02532653
102	0x3d945b43	0.07243969
103	0x3c027699	0.007962846
104	0x3ccca8c3	0.024982816
105	0x3ce10522	0.027468268
106	0x3d39ffe6	0.04541006
107	0x3c6a2c87	0.014292843
108	0x3c8b8c02	0.017034534
109	0xbd95a074	-0.07305995
110	0xbdd8213c	-0.10553214
111	0xbcfb5352	-0.030679379
112	0x3d39f3ca	0.04539851
113	0xbd43c9a8	-0.047799736
114	0xbd0df656	-0.034658752
115	0x3b15271d	0.002275891
116	0xbadbf155	-0.0016780297
117	0x3d4b88e3	0.049691092
118	0xbcc8d8b8	-0.024517402
119	0x3cc8664c	0.024462841
120	0xbcde02ec	-0.027101003
121	0xbdf4801f	-0.119385
122	0xbdf09b72	-0.11748399
123	0xbd8b39af	-0.06798112
124	0xbe0c7d87	-0.1371976
125	0xbe4b75aa	-0.19869104
126	0xbdc5dfe3	-0.09661844
127	0xbd8abdfa	-0.067745164
128	0xbdd1e25f	-0.10248255
129	0xbdd63f29	-0.104612656
130	0xbe17caf4	-0.14823514
131	0xbd6a1293	-0.05714662
132	0xbe1dfa69	-0.15427555
133	0xbe1a51c7	-0.15070258
134	0xbe19c392	-0.1501601
135	0xbe2e2211	-0.17005183
136	0xbdba617b	-0.09100624
137	0xbd9a5ef7	-0.07537644
138	0xbc193df7	-0.0093531525
139	0xb9f17eb8	-0.00046061515
140	0x3d7a64e4	0.061131373
141	0xbbd70713	-0.0065621226
142	0x3d8c1840	0.06840563
143	0xbd98556c	-0.07438168
144	0x3ce18ea9	0.027533846
145	0x3d72fce0	0.05932319
146	0x3d0faf87	0.035079505
147	0x3c1bc831	0.009508179
148	0x3d019936	0.031640254
149	0x3d6cdd40	0.057828188
150	0xbd4b19bd	-0.049585093
151	0xbe0a7487	-0.13521014
152	0xbdad60d5	-0.08465735
153	0xbdb3ad53	-0.08773293
154	0xbe3f6fd1	-0.18694998
155	0xbe335444	-0.17512614
156	0xbddd256e	-0.10798155
157	0xbe681c03	-0.22666936
158	0xbe11700c	-0.14202899
159	0xbe340a66	-0.17582092
160	0xbdfc0106	-0.12304883
161	0xbe30d5fe	-0.17269132
162	0xbe4cd320	-0.20002413
163	0xbe63b7de	-0.22238109
164	0xbe1274c6	-0.14302358
165	0xbde2e9d3	-0.11079755
166	0xbdd8a49a	-0.1057827
167	0xbe6cb7e6	-0.23117027
168	0xbe320496	-0.17384562
169	0xbe223728	-0.15841353
170	0xbe08c9b7	-0.13358198
171	0xbde899cc	-0.113574594
172	0xbe07d53d	-0.13264938
173	0xbdf9e942	-0.122026935
174	0xbb968c1f	-0.0045943405
175	0xbcbc425b	-0.02298086
176	0xbda54d8f	-0.08071434
177	0xbda156d3	-0.078778885
178	0xbcd0168a	-0.025401372
179	0xbdcfce6f	-0.10146796
180	0xbe09a6bd	-0.13442512
181	0xbe247702	-0.16061023
182	0xbe1a60ef	-0.1507604
183	0xbe245ce3	-0.16051058
184	0xbdaa2593	-0.08307948
185	0xbd842ac0	-0.064534664
186	0xbd8aa47b	-0.067696534
187	0xbe143d55	-0.14476521
188	0xbd91d40d	-0.071205236
189	0xbc045c75	-0.008078684
190	0x3d94d451	0.07267059
191	0x3ce4f316	0.027947944
192	0x3cacd529	0.021097736
193	0x3e094cf3	0.1340826
194	0x3d65269f	0.055945035
195	0x3daf65bc	0.08564326
196	0x3da70e5e	0.08157037
197	0x3df4ff01	0.11962701
198	0x3e1bb15a	0.15204373
199	0x3d809985	0.062792815
200	0x3e18b905	0.1491433
201	0x3d4e0199	0.050294492
202	0x3dd167d6	0.10224883
203	0xbcb4e94c	-0.0220839
204	0xbd8c1c9e	-0.06841396
205	0xbd127531	-0.035756294
206	0xbd56cc1a	-0.05244074
207	0xbd4009f2	-0.046884485
208	0xbd014dd4	-0.031568363
209	0xbdc6929b	-0.096959315
210	0xbd7cd9f5	-0.061731298
211	0xbd11d223	-0.035600793
212	0xbdc1c7af	-0.09461915
213	0xbe399ff0	-0.18127418
214	0xbe44d46b	-0.19221656
215	0xbe34bfda	-0.1765131
216	0xbe6b6b50	-0.22990155
217	0xbe1a6de9	-0.1508099
218	0xbe3be6c8	-0.18349755
219	0xbe39d8ed	-0.18149157
220	0xbe5215f4	-0.20516187
221	0xbe0624aa	-0.13099924
222	0xbdd2814a	-0.10278566
223	0xbdf390db	-0.11892863
224	0xbd3c775f	-0.04601228
225	0xbd3b9485	-0.045795936
226	0xbd7a391d	-0.061089624
227	0xbd0e22c5	-0.034701128
228	0x3cf29db1	0.029616209
229	0xbd1dd0f4	-0.03852935
230	0x3ca7cd62	0.020483676
231	0x3d4f9967	0.050683405
232	0x3d25f05d	0.04051243
233	0x3e1d3494	0.15352088
234	0x3d9b3574	0.07578555
235	0xbdd0ca00	-0.101947784
236	0x3b084d78	0.0020798128
237	0x3c5af704	0.013364557
238	0xbd80aa58	-0.062824905
239	0xbd18d349	-0.037310872
240	0xbdaee2a9	-0.08539326
241	0xbdbbadb8	-0.091639936
242	0x3bb4814a	0.0055085765
243	0xbc826276	-0.01591609
244	0xbd084918	-0.033272833
245	0x3da3ff5a	0.08007689
246	0x3d8eb788	0.069685996
247	0x3de04481	0.10950566
248	0x3dc6f6cf	0.09715044
249	0x3e04eaaf	0.1298015
250	0x3d7be723	0.061499726
251	0x3dfdd132	0.123934165
252	0x3e0fbf5d	0.14037843
253	0x3de6acb1	0.11263407
254	0x3d159c57	0.03652605
255	0x3d26ba1c	0.04070483
