demo/weights/ori_2_2_kernel_0.npy (npy, 46160 bytes, 1 tensors)

array f4 [1, 1, 128, 90]
00000000: 84b4 2ebd 6218 133c dff9 513d c6a8 793b
00000010: 51a1 9a3c 239e 01bc 8b00 2d3d d3af a03d
00000020: 4d80 303d edfc ce3c 1fa6 2c3d d8a7 8dbd
00000030: 7c21 8bbd 9b1b 47bc 2e21 03bd b507 d0bc
00000040: e423 a4bd 9892 28be 3432 52bd 0602 1bbe
00000050: 7f49 b7bd 52f6 a2bd 2ca3 a5bd 99a6 92bd
00000060: 7f3c bcbd e7c0 113d 7896 7bbd 287d a6bc
00000070: c7f5 b7bd a4fe 853c 4e39 993b e63f 13bd
00000080: 696a 84bc 3462 74bc a1c1 b2bb 8a8f 84bc
00000090: 5497 b9bc e41c bcbc a8aa 103d 2dca 27bd
000000a0: 85c2 64bd d1b1 2ebd ed62 b9bc 17b0 29be
000000b0: 15f4 bf3a f310 a1bd aa43 503d cc5b a0bd
000000c0: 9784 64bd 7426 3a3d b1bd 77bc 8dce 263d
000000d0: 1f38 0dbd 43a0 b73a cf17 463d b060 503d
000000e0: b736 803c 726e 82bd 0782 96bd a93b 343d
000000f0: 5845 13be f57f fbbd 617f 40be 7f83 7dbe
00000100: ea09 8cbe eff2 bebe 9abc c4be d652 aebe
00000110: 89cc 01bf b500 ddbe 618e 18bf 91a6 2abf
00000120: f5fd 2cbf fbb9 16bf 8706 25bf c7d6 36bf
00000130: 1702 0abf 8dea ddbe ccb6 25bf b8a6 00bf
00000140: 9913 dfbe 727d 16bf 9c76 e6be 0753 b2be
00000150: d423 bcbe 0f2c aabe d491 adbe 958d 36be
00000160: 4a68 0abe 49b4 dabd c4d6 a9ba bca3 4a3d
00000170: 59ed f5bc d13e 0ebc 2559 83bb e37b 00bc
00000180: e478 a33c c9a1 d4bd 38bc 5b3b c9ce 96bd
00000190: a114 edbc 93a7 bebd 0416 0dbd e72d 8bbd
000001a0: 5728 4cbc 9f6f 81bd e13d a3bd a468 3bbd
000001b0: c111 9abd 0365 f0bd f86c fbbd b4b6 62bd
000001c0: b062 42be cc36 07be 6f29 29be ac31 04be
000001d0: d1ab 2cbd 6867 9bbd 9a56 1e3c d918 a13d
000001e0: fa88 993d e6b1 ef3d 8e7f 023e 5303 f53d
000001f0: 4206 013e 627f a73d c799 173e 193c e63d
00000200: bac8 d03d c563 c33d 8736 d33d fe37 9d3d
00000210: c746 f63c b44e 07bc 1378 95bc b23b 87bd
00000220: c008 8bbd 781b b9bd d2a4 27be 93d9 84be
00000230: 7c14 25be 85d6 b3bd 22c5 46be 5521 eabd
00000240: 9363 60be 9e2d 14be 110c b7bd d1ec 03bd
00000250: e2c6 23be f282 babd 5389 10be 9ae9 9bbc
00000260: 82f4 1cbc 1c12 b7bd febc 33bd 0d59 813b
00000270: 762f 913d 62a2 b53d d316 bf3c ad03 1fbd
00000280: 4485 453d 8191 5bbc c6a9 a8bd 18c3 39be
00000290: ac0b 38bd edbd 443c dd9b 3a3d 28c2 ce3d
000002a0: ad13 013d 3145 7dba b829 17bd 55ce 81bb
000002b0: 3e46 9c3c 12d3 76bd abb1 79bd 9661 c03c
000002c0: 71ad 7d3d e42b 053d 7819 713d 1954 013d
000002d0: 6b5d cbbe ed83 a7be 5ad7 b7be 775e 80be
000002e0: 23fd 9bbe d375 80be b01d 6abe e0d8 dbbd
000002f0: 8c45 c7bd f32e a1bd 423b 8ebd af5c 19be
00000300: 1990 1e3d 112f 2b3d 0a8b a0bd f951 b8bc
00000310: 22d5 b93d 2166 57bc b6cd c5bc a967 1fbd
00000320: e8f0 69bb b1f2 463d 788b e9bc 0dfd 253c
00000330: e0d8 7d3d bf71 c6bd b332 6e3d 5f7e a43c
00000340: 0eaf bc3c f296 8ebd a4eb a5bd acbf 833c
00000350: 0b5b 37bd 5628 97bd 3796 debd 2f32 aa3c
00000360: 2746 56be 318d 2fbd 737d b0bd 476d d0bd
00000370: 7693 02be 9e1e 8ebd 3c48 7ebd a61a 64bd
00000380: 49fb 20be 5d86 3ebc 3b17 16be d2b5 b8bd
00000390: 3b53 87bd a89a e2bd a132 6dbd da82 6dbc
000003a0: 3517 26be 14ee 323c dc78 f5bd b049 e73c
000003b0: 8e4d 90bc 9147 e1bd c670 11bd b26d 17bd
000003c0: 5276 69bd 1301 8d3c 684f d2bd 608d 363c
000003d0: 5e7b 3b3d a50e acbd b237 f5bc e1ff a8bd
000003e0: 74aa abbd db70 32be 81ba 90bd 5bcb e8bd
000003f0: 2426 06be 6bc9 40be abfc 68be 6bf1 28be
-0.042652622 0.008977981 0.051263686 0.0038094982 0.01887575 -0.007911238 0.042236846 0.07846036
0.043091107 0.025267089 0.042150613 -0.06916779 -0.06793496 -0.012152578 -0.032014064 -0.0253943
-0.08014658 -0.16462171 -0.05131741 -0.1513749 -0.08949565 -0.07957138 -0.08087763 -0.07160682
-0.09191226 0.035584357 -0.061422795 -0.020323351 -0.08982425 0.016356774 0.0046760207 -0.03594961
-0.016164022 -0.014915992 -0.0054552113 -0.016181726 -0.022655167 -0.022962995 0.035319 -0.040964294
-0.05584957 -0.042650048 -0.02263018 -0.16571079 0.0014644886 -0.07864561 0.05084578 -0.07830009
-0.05579051 0.045446828 -0.01512091 0.040724326 -0.03447735 0.0014009554 0.04836255 0.05087346
0.01565109 -0.06368722 -0.073490195 0.04400221 -0.14381921 -0.12280265 -0.18798591 -0.24757193
-0.27351314 -0.3729472 -0.38425142 -0.34047574 -0.5070272 -0.43164602 -0.5959225 -0.6666041
-0.6757501 -0.58877534 -0.64463085 -0.71421474 -0.5390944 -0.4334301 -0.6473205 -0.5025439
-0.4356964 -0.58785164 -0.45012367 -0.3482897 -0.36746085 -0.3323674 -0.3390032 -0.17827447
-0.13516346 -0.10678918 -0.0012957682 0.049472556 -0.030020403 -0.008681969 -0.0040084296 -0.007842037
0.019955106 -0.103824206 0.0033528935 -0.0736366 -0.0289405 -0.09309306 -0.034444824 -0.067958646
-0.01246079 -0.06320118 -0.07970787 -0.04575409 -0.075229175 -0.117380165 -0.122766435 -0.05535002
-0.18982959 -0.13204497 -0.16519712 -0.12909573 -0.042156044 -0.075880826 0.009664202 0.078660674
0.07496829 0.11703853 0.12743971 0.11963525 0.12600043 0.08178593 0.14804755 0.112419315
0.101945356 0.09540514 0.10313135 0.07676695 0.030063046 -0.00825851 -0.018245732 -0.06603183
-0.06788778 -0.090384424 -0.16371468 -0.25947246 -0.16121095 -0.08781151 -0.19411138 -0.11432139
-0.21912985 -0.14470527 -0.08937848 -0.032208268 -0.15993837 -0.09107007 -0.14114885 -0.019032288
-0.00957978 -0.08939001 -0.04388141 0.0039473833 0.070891306 0.08868863 0.023326313 -0.038821865
0.048222795 -0.01340139 -0.08235507 -0.18140829 -0.044933006 0.012008172 0.0455588 0.10095626
0.031512905 -0.00096614944 -0.03690502 -0.0039613643 0.019076463 -0.060259886 -0.060960453 0.023484033
0.061932985 0.03251256 0.05886218 0.031574342 -0.3971971 -0.3271784 -0.35906488 -0.2507207
-0.30466565 -0.25089893 -0.22862887 -0.10734725 -0.09730062 -0.07870283 -0.06944896 -0.14976762
0.03871164 0.041792933 -0.078390196 -0.022500025 0.09073855 -0.013146908 -0.024145942 -0.038917217
-0.003569657 0.048571292 -0.028508887 0.010131133 0.061974406 -0.09689664 0.05815382 0.02007979
0.023032691 -0.06962384 -0.081015855 0.016082607 -0.04476456 -0.0738074 -0.10868495 0.020775883
-0.20925198 -0.04285926 -0.086176775 -0.10177093 -0.12751564 -0.069394335 -0.062080607 -0.055689476
-0.15720858 -0.011628714 -0.14657299 -0.090190545 -0.06607672 -0.110646546 -0.05790961 -0.0144965295
-0.1621979 0.01092102 -0.11985943 0.02823338 -0.017615106 -0.10999978 -0.03550794 -0.036969848
-0.056997605 0.017212426 -0.10269052 0.011142105 0.04577195 -0.08401231 -0.029933784 -0.0825193
-0.08382121 -0.17425863 -0.07066823 -0.11366912 -0.13100487 -0.18826835 -0.22752635 -0.16498344
