demo/weights/ori_3_2_kernel_0.npy (npy, 46160 bytes, 1 tensors)

array f4 [1, 1, 128, 90]
00000000: 25dd b0bd 9a99 51bd 54e9 64bc 2e26 3cbd
00000010: 84f1 c13b 778f a1bc 0d48 87bd 0ff2 c1bc
00000020: f9f2 a23c 43b5 adbc 0c09 eb3c d816 b5bb
00000030: 92b4 283c 632c 43bd 3cc7 b9bc 91b4 923d
00000040: 4bee d33c b11a 7fbd cf96 7ebc d2b0 42bd
00000050: 6b4e 2fbe bffa babc c4c9 0e3c 61d3 2abd
00000060: 1e2d fcbc 32a0 72bd 9cf0 a0bd d2a2 9bbd
00000070: c763 043d ea96 a6bd 29af 19be d4ce c7bd
00000080: e2db b4bd 7720 9abd 30e9 a4bd 555b c63b
00000090: e861 45be 6381 31be 7a5e 26be 2956 31be
000000a0: d509 a7bd 70e5 1abe 7319 4bbd cc12 90be
000000b0: 2896 0cbe def1 52be 239b c4bd 21e2 ecbd
000000c0: 8102 41be a54c 1e3d 4fd1 9abd 21e5 0cbe
000000d0: 9235 33be 356c c7bd 8aa1 30bd 616b 903a
000000e0: 181c 33be b4d7 56bd 3e9f a5bd 20ee 3abd
000000f0: d42a 08be 2fec 9abd 5732 dabd 3aba f6bb
00000100: 2098 ccbd de08 8dbd 19d0 323d df14 45be
00000110: 0364 e4bd 5582 c9bb cdf6 4abd 0620 a8bd
00000120: 1c41 e8bc cd27 313d f8da 04be b3a5 a6bd
00000130: 270f a03c 41cf a43c f31d e6bc 747c 05be
00000140: d514 a9bd 3629 c4bd 7870 3abd 3c26 05bc
00000150: 5c04 a3bc 0ee7 66bd 1acd 3cbd 00b0 76bd
00000160: f554 8fbc 84c2 58bd d627 f9bc a80d c53d
00000170: 4017 aebc 1194 01be 6ed7 6fbd f6af 64bd
00000180: 11d9 8fbd 0337 0abc c1f6 8abd df6b 3abd
00000190: cc79 b03b 5788 283c e724 56bd d6be 0d3d
000001a0: 0806 593d 4daa 4c3d 4ccd 3a3c 776e 4cbd
000001b0: eb74 823d b2d7 d1bc 0aed b1bc ea21 22bc
000001c0: 2a1e b1bc 89ee 2abb d4f2 c23d 90dd cf3c
000001d0: ba23 86bd cd42 123c 45bd f5bd 096e 80bd
000001e0: 6531 343d ef10 4dbd e827 1dbd e416 173e
000001f0: 2747 94bd 5edf 7a3a efb5 583d eb5b 93bd
00000200: a5b2 9cbc 5158 babc 2d79 833d 4544 963d
00000210: f6fc b43c 47bb 093d 1cfd 313e c9fa 6c3e
00000220: 71ec 913d 3c63 ad3d 0a9d c63d 04c7 35bd
00000230: 22fd 2dbd 1839 a23c f650 90bb 8f10 a73b
00000240: 7f1b 08bd 3420 673d 7efc a93a 8571 03bd
00000250: 92e5 653d 8d0b 27bd bdd6 933d faae 05bd
00000260: 7d66 5d3c 3342 17bd fedc a13d 1353 933c
00000270: 4a62 08be c2ac 85bc 04b6 d33c ec7d ecbc
00000280: e7e1 a23c d937 01bd 33a9 5cbd d8eb cabc
00000290: af15 993d e74f 083d 5abf 133d 09e7 e7bd
000002a0: 3728 8dbd 0b72 5d3d 72ed debd 7e72 bfbc
000002b0: 3bc3 41bc ae3a f7bd de21 233c 8c05 9abb
000002c0: 09d4 10be 1507 543c d9ce ebbd 65a1 5b3a
000002d0: 40c6 a83c 480b 84bd 65f6 92bd a3f5 20bd
000002e0: 6dcd a2bd 29e4 bc3c c78b a83d 69f2 b0bd
000002f0: a6ee 1abc c57f 16bc 1c26 643d 57e5 30bd
00000300: 536c 51bb ee78 0bbd c2c9 5dbd 5ea7 95bd
00000310: 2c5a 35bc 3feb 48bd c5af 573c bab2 71bd
00000320: 49ad e5bc c0fb 5a3d e7a9 41bd a3b3 ab3c
00000330: 5a79 83bd e313 41bb 74bd 9abd 4e7d 2dbc
00000340: cf8b 4c3d 8f99 c73d d643 e43b d63c 19bd
00000350: f859 8d3d 4b44 b13d 7a37 d1bb 2148 fe3c
00000360: 7a39 b43d e0a7 863d 458c 533d 38a4 bc3d
00000370: b6c8 793c e94d 5b3d 98c2 fcbb 1d4a e4bd
00000380: d4e5 46bd 67a4 2bbd 328e b23b 3c87 69bc
00000390: 68fc a1bd bc42 a9bd 432d adbd 62f6 f6bc
000003a0: 48f5 a7bc 5d27 66be 315c f9bd 9460 97bd
000003b0: 8509 38be b858 a8bc b2a1 03bd a2c9 d53c
000003c0: 2544 8fbd 2cd3 0bbe cd5b d8bc 8209 60bc
000003d0: 4d82 22bc 8078 9bbd fb0b ee3b d1c4 f53c
000003e0: 5a3b d1bd b46f 8fbd 07a4 c7bd 6e94 ef3c
000003f0: 6b99 97bd 659e 57bd b636 72bd af41 64bd
-0.0863593 -0.051171876 -0.013971645 -0.04593485 0.0059186835 -0.01972173 -0.066055395 -0.023674993
0.019891249 -0.021204596 0.028690837 -0.005526405 0.010296958 -0.047649752 -0.02267801 0.071633466
0.025870463 -0.062281314 -0.015538885 -0.04753191 -0.17119758 -0.022824643 0.008715097 -0.041705493
-0.030783232 -0.059234805 -0.078583926 -0.07599415 0.032321718 -0.08134253 -0.15008225 -0.09756246
-0.08831002 -0.075257234 -0.080522895 0.006053368 -0.1927563 -0.17334513 -0.16246977 -0.17318024
-0.08156172 -0.15126586 -0.049584817 -0.2813934 -0.13729155 -0.20600078 -0.095999025 -0.11566568
-0.18848611 0.038647313 -0.07559454 -0.1375928 -0.17500904 -0.09737436 -0.043122806 0.001101833
-0.17491186 -0.052451804 -0.08087014 -0.04563725 -0.13297588 -0.0756458 -0.10654133 -0.007529524
-0.09989953 -0.06886457 0.04365549 -0.19246243 -0.11151888 -0.00614957 -0.049551774 -0.08209233
-0.02835136 0.043250848 -0.12974155 -0.08137073 0.019538475 0.020118358 -0.028090453 -0.13035756
-0.082559265 -0.09578173 -0.045517415 -0.008126792 -0.01989954 -0.056372695 -0.046094038 -0.06022644
-0.017496565 -0.05291988 -0.030414503 0.09621745 -0.02125132 -0.12654139 -0.05855506 -0.055831872
-0.07023824 -0.008435967 -0.06785346 -0.04551303 0.005385613 0.010286412 -0.052281287 0.034605823
0.052984267 0.0499671 0.011401486 -0.049910035 0.063699566 -0.025615547 -0.021719474 -0.009895781
-0.021620829 -0.002608212 0.09518972 0.025374204 -0.06549783 0.008927059 -0.11998991 -0.062709875
0.04399242 -0.050064977 -0.038368136 0.14754826 -0.07240134 0.00095700275 0.05290788 -0.07195266
-0.019128153 -0.02274719 0.06419597 0.0733724 0.022093277 0.033625867 0.1738171 0.23142542
0.07125176 0.08466193 0.096979216 -0.04437925 -0.042477734 0.019802615 -0.0044041825 0.0050984095
-0.033229347 0.056427196 0.0012968925 -0.032090683 0.05612714 -0.0407825 0.072186925 -0.032637574
0.013513205 -0.036928367 0.07903479 0.017983949 -0.13318744 -0.016317729 0.025843628 -0.028868638
0.01988311 -0.0315474 -0.0538723 -0.024770662 0.07474839 0.033279326 0.03607116 -0.11323363
-0.06892436 0.054063838 -0.10885133 -0.023370024 -0.011826332 -0.12071739 0.009956805 -0.0047003683
-0.14143385 0.012941142 -0.115140624 0.00083782367 0.020602345 -0.06447464 -0.07175902 -0.039296757
-0.07949338 0.023058014 0.082297854 -0.08639986 -0.009456312 -0.009185736 0.055700406 -0.043187466
-0.0031955435 -0.034050874 -0.05414749 -0.073073134 -0.011068862 -0.049052473 0.013164465 -0.059008338
-0.02803673 0.053462744 -0.047281172 0.02095968 -0.0641963 -0.0029461316 -0.075556666 -0.010588957
0.04993802 0.09746086 0.0069660945 -0.037411533 0.06901926 0.08655604 -0.006384787 0.031040253
0.08800025 0.06574988 0.051647443 0.0921101 0.015245607 0.053541098 -0.007713627 -0.111469485
-0.048559025 -0.041904833 0.00544908 -0.014253434 -0.07909471 -0.08264682 -0.084558986 -0.030146781
-0.020502701 -0.22475953 -0.12175787 -0.07391468 -0.17972381 -0.020550117 -0.032136627 0.026097123
-0.069954194 -0.13654774 -0.026410962 -0.013674142 -0.009918761 -0.07591343 0.007264612 0.030001076
-0.102163985 -0.070037276 -0.097480826 0.029245581 -0.07402309 -0.05264129 -0.059134208 -0.055726703
