demo/weights/prelu-seg_3_1_alpha_0.npy (npy, 592 bytes, 1 tensors)

array f4 [1, 1, 128]
00000000: 23cb 7ebd 409a e4bd 532f a1be ed5b b6bd
00000010: 3963 c6bb acf9 c3bd aa23 803e c78c 5fbd
00000020: 48bf 0ebc 9162 dbbc 7451 e83c 09f0 dabb
00000030: 5622 7dbd 6b47 d0bd 347f 633c 6c5f 6d3d
00000040: 9d81 28bd ec81 db3e d9b7 9bbc 494d 393e
00000050: 7710 e2bc 1844 82be 285a 46bd 540d f5bc
00000060: c9e4 e33e 6d3d 0dbd cf70 563c cc36 bbbc
00000070: ae24 85bc e5b4 1fbd 84d0 85bd 5b94 acbc
00000080: 4ce6 3bbe ef5a e7bc 0cae de37 3c86 bebc
00000090: 107a d3bc 6612 bf3d 3158 d23c d289 96bd
000000a0: 3342 87bc 70f7 70bc 18ae 383d 4f11 f33c
000000b0: ea12 1dbc a7a6 5fbe 5437 00bc 47cb 7fbc
000000c0: a999 b0bc 3b65 dcbd 8d3e 8a3b 3fa4 0cbc
000000d0: ddaa 5dbd f1b4 b13e d39f 21bc 0cb5 a63e
000000e0: b04b 09bd ab11 313e f1c0 a53d afa7 06be
000000f0: 50b1 2dbc b088 80bb f72e 05be ba28 02be
00000100: 4fde 5bbd 2ecf 4dbd b4e6 9cbd 6a86 e2bd
00000110: 9db5 493c 59f4 dabd da97 54bd 0b1a 86ba
00000120: fe4a 5bbd 7f75 493d 24d7 a1bc ed9f 4cbc
00000130: b450 14bc 5085 913b a709 0c3d 975e afbc
00000140: 44d2 86bd 9e30 0dbd 68b9 8ebd 5d75 a9bb
00000150: 761d 343e 93ee 933c 2c6c 373c 85f3 9dbe
00000160: 6398 d83d 6a22 0b3d 6e8f aabc 9059 24bb
00000170: 9510 233d ee03 13bd 3b03 133d f5a3 2cbd
00000180: 5b0d f7bd 1e6d 13be 1237 89bd 8f91 9fbc
00000190: 62e8 27bd a854 c4bd e52b 383c 013e e5bc
000001a0: 416f 0fbe 8f1e bfbb 64e9 2bbe 2e01 26be
000001b0: dba1 11bd d57c 92bd 6615 73bc 7102 bd37
000001c0: 8a68 10bd 0783 b2bd 8200 e5bc 4a96 f4bb
000001d0: 1596 acbc fc5d 60bd 08d5 1f3d 32cd baba
000001e0: 6c52 dabd 61a9 3ebd 060f 75bc dea5 eebc
000001f0: 2e66 60bd 0fd2 9cbd ec2e c5ba 1be0 0b3c
-0.062205445 -0.11162233 -0.31481418 -0.08904252 -0.0060543087 -0.095691055 0.2502721 -0.054577615
-0.008712597 -0.026780399 0.028359152 -0.0066814465 -0.061800323 -0.10169872 0.013885308 0.05795233
-0.041139234 0.4287256 -0.019008564 0.18095888 -0.027595742 -0.25442576 -0.048425823 -0.029913582
0.44510487 -0.03448241 0.013088419 -0.022853278 -0.016252842 -0.038990874 -0.06533912 -0.021066835
-0.1834957 -0.028241603 2.654551e-05 -0.023257367 -0.02581504 0.09329681 0.025676819 -0.07350506
-0.016511058 -0.014707431 0.045087904 0.02967134 -0.009587029 -0.21840917 -0.007825691 -0.01561243
-0.021557646 -0.10761496 0.0042188824 -0.008584081 -0.054118026 0.3470836 -0.009864765 0.32560003
-0.033519447 0.17291896 0.08093441 -0.13149904 -0.010601357 -0.0039225444 -0.13006197 -0.12710848
-0.053678807 -0.05024641 -0.07661191 -0.11060794 0.012311366 -0.10691137 -0.05190263 -0.001023115
-0.053538315 0.04918432 -0.019755907 -0.012489301 -0.009052444 0.004440941 0.034188893 -0.021407409
-0.06583074 -0.034470193 -0.06968957 -0.0051714615 0.17589363 0.018058097 0.011195224 -0.30849853
0.105759405 0.033968367 -0.020820346 -0.0025077797 0.039810736 -0.03589242 0.035891753 -0.04214855
-0.12063094 -0.14397094 -0.06699957 -0.019478587 -0.040993102 -0.095864594 0.011240934 -0.027983667
-0.14007284 -0.0058325003 -0.1678825 -0.16211388 -0.035554748 -0.07152716 -0.014836645 2.2531693e-05
-0.035255946 -0.08716398 -0.027954344 -0.007464205 -0.021067658 -0.05477713 0.03902152 -0.0014251827
-0.10660252 -0.04654825 -0.014957195 -0.029131826 -0.054784946 -0.07657253 -0.0015043891 0.008537318
