demo/weights/prelu-ori_2_1_alpha_0.npy (npy, 592 bytes, 1 tensors)

array f4 [1, 1, 128]
000000 74 b1 3a 3d a4 68 4f bc 46 72 8d bd 2f f7 77 bd
       0.04557939 -0.012659226 -0.069065616 -0.060538467
000010 2a 96 fe bb e5 df 2c 3d b5 4e 01 3c 7a dd 1d bc
       -0.007769366 0.04220571 0.0078923 -0.009635324
000020 a8 7b 7d bc b8 30 e5 bc 90 0d e1 3b 69 50 87 ba
       -0.0154713765 -0.027977332 0.006868072 -0.0010323647
000030 de bb 14 3c 21 ea 6d bd 3f 60 44 3c 9a 39 ec 3c
       0.009077994 -0.05808461 0.0119858375 0.02883606
000040 a7 18 1f bd 25 b5 67 bd ea bc 43 3a a6 5d 6e 3c
       -0.03884187 -0.056569237 0.000746681 0.014548695
000050 81 79 d5 bb 93 c9 7d 3d 59 3d d9 3b 48 80 f7 bc
       -0.0065147285 0.061959814 0.0066296277 -0.030212536
000060 37 76 2b bd fc aa 28 3d 30 fe 9c 3c bf 2d 1d 3c
       -0.041860785 0.04117869 0.019164175 0.009593426
000070 0f 52 4a bd dd 13 4d bd a1 22 d1 bc a4 03 01 3d
       -0.049394663 -0.05006777 -0.025529208 0.031497613
000080 a3 fd 7c 3b c6 d5 0a 3c b0 ff 19 3c 33 e5 83 3c
       0.0038603328 0.008473819 0.00939934 0.016100502
000090 ac 7f 8e bb 85 11 ab 3c 65 93 00 bd 56 05 97 3b
       -0.004348716 0.020882377 -0.031390566 0.0046087904
0000a0 f4 2c 4c bc d4 2a 5a 3c 5c 5f ba 3a 8d b9 ba bc
       -0.01246189 0.013315875 0.0014219093 -0.022793556
0000b0 d4 be 1d bd eb 54 75 3c 59 03 08 bd 2e b4 a1 bc
       -0.038512066 0.014973859 -0.033206318 -0.019739237
0000c0 b7 8b 2b bd d7 e7 ad 3c 1c 09 55 3c d3 c0 f6 bc
       -0.04188129 0.021228714 0.01300266 -0.030121243
0000d0 1e 2b 5a bd f8 ba b4 bd 6e ef 22 3c 7a 4e b0 bc
       -0.053263776 -0.08824724 0.00994478 -0.021521796
0000e0 8d 9f c2 bb 06 12 d8 3b 6f 20 3e 3c cb 15 13 bc
       -0.00593943 0.0065939454 0.011604412 -0.008977364
0000f0 15 a6 b3 bc 90 c8 c1 3b 9f 4c a2 3c 3a 41 9b bc
       -0.02192978 0.0059138015 0.019811926 -0.018952
000100 f1 9a 82 3d 09 6e 31 bb 6e 68 5b bc 69 01 5a bd
       0.06377209 -0.0027073643 -0.013391597 -0.053224
000110 29 55 aa 3c 57 df 20 bc 3d db 80 3c 31 4a 1b bd
       0.02079256 -0.009818873 0.015729541 -0.03791255
000120 26 92 a9 bc ef 33 bb bc a9 8a d5 bb 4c 6a a0 3c
       -0.020699572 -0.022851912 -0.0065167737 0.019581936
000130 64 ce cd bc 44 6e 98 3a a4 17 5e bd 4a dd 39 bd
       -0.025122829 0.0011629541 -0.054221764 -0.045377053
000140 e1 37 8d 3c 1a 5d 3f 3b 0b aa 9f bc c2 c9 cd ba
       0.01723856 0.002919978 -0.019490262 -0.0015700387
000150 85 d9 97 3c 93 b7 f8 bc 18 3b e5 bc cc a6 d3 bc
       0.018536339 -0.030360973 -0.02798228 -0.02583637
000160 7d 40 8f 3c 5e b0 75 3b 70 a5 58 3a 70 87 dc 3c
       0.017486805 0.0037489156 0.0008264398 0.02692005
000170 3e 34 ac bc 4b ec 89 bb 5b ba b6 bc b8 9d 2d 3d
       -0.021021005 -0.0042090765 -0.022305658 0.04238674
000180 5e ac 06 bd 9b 32 a5 bc d2 f0 92 3b d9 96 b7 bc
       -0.032879226 -0.020165732 0.0044842744 -0.022410797
000190 72 58 d6 bc 95 ee 6f bc 85 61 40 bd e2 23 42 3d
       -0.02616522 -0.014644285 -0.046968002 0.0473975
0001a0 a5 1e 89 3d 32 8f 04 3d cd 9b 73 3b 75 f2 94 3c
       0.06695298 0.032363124 0.0037171722 0.018182019
0001b0 1e 8f 82 3b 8c 39 b8 bc 51 78 5a bd e3 b5 65 ba
       0.003984346 -0.022488378 -0.0533374 -0.000876276
0001c0 23 21 72 bc 36 f0 e1 bd 73 2e 17 bd 66 22 8e bc
       -0.014778408 -0.11032145 -0.03690953 -0.017350387
0001d0 36 7d b1 3c 82 ea 16 3c 48 9c a5 3c 7c a4 c3 bc
       0.02166615 0.009211184 0.020216122 -0.023882143
0001e0 cc a5 fd 3c 13 3b 29 3c 9c 01 69 bc ba 2b 0e bc
       0.030962847 0.010329026 -0.014221575 -0.008677417
0001f0 2d 57 37 ba fa 21 9a 3c 16 bf 16 bc 0a b4 59 bc
       -0.0006993886 0.01881503 -0.009200832 -0.013287554
