demo/weights/prelu-ori_3_1_alpha_0.npy (npy, 592 bytes, 1 tensors)

array f4 [1, 1, 128]
0	0xbd6c89bf	-0.057748552
1	0xbc399209	-0.011326321
2	0xbc5d35ea	-0.013501624
3	0xbc9f18bc	-0.019420974
4	0xba0bcf9e	-0.00053333666
5	0xbcdcedef	-0.026968924
6	0x3d7fb43b	0.06242774
7	0x3d112511	0.03543574
8	0x3d1b6185	0.0379348
9	0xbc083c4c	-0.008315157
10	0xbc853e16	-0.016264956
11	0xbb1f29e6	-0.0024286448
12	0x3c9e28db	0.01930659
13	0xbb9a4e76	-0.0047090603
14	0xbcadcd21	-0.021215977
15	0x3cae547b	0.021280518
16	0xbc1734a3	-0.009228858
17	0xbb160ed2	-0.0022897017
18	0x3cb711c5	0.02234734
19	0xbd0cb533	-0.034352493
20	0x3db3b13b	0.087740384
21	0xba957553	-0.0011402763
22	0x3c3d14a2	0.011540564
23	0xbb805a9a	-0.0039170505
24	0xba478775	-0.0007611432
25	0xbc533956	-0.012892088
26	0x3abe718c	0.0014529689
27	0xbc00ba28	-0.007856883
28	0x398bf649	0.00026695643
29	0xbacaca1a	-0.0015471608
30	0xbbdaa3ac	-0.0066723432
31	0xbc8c1a59	-0.017102407
32	0x3bbaee5b	0.0057046837
33	0x3ab567e3	0.0013840165
34	0x3d3f74b9	0.046742175
35	0xbcfa3941	-0.030544879
36	0xbc4a6dcb	-0.012355278
37	0xba7326f7	-0.00092755206
38	0xba5105d0	-0.00079735834
39	0x3bdf8521	0.00682129
40	0x3dcc19ff	0.09965896
41	0xbae473b1	-0.0017429498
42	0xbaf2fbf2	-0.001853822
43	0x3a1c84e5	0.00059707306
44	0xbbd5ba2d	-0.006522438
45	0xbc2a2dfc	-0.01038694
46	0xbbe135b8	-0.006872859
47	0x3b8687b1	0.004105531
48	0x3a5ab42e	0.0008342889
49	0x3c04d9a9	0.008108535
50	0xbd21d3d4	-0.039508656
51	0x3903e16b	0.00012577108
52	0x3a203ff0	0.0006113043
53	0x3d6dd991	0.058068816
54	0xbc86fe6b	-0.016478738
55	0xbd18ad4b	-0.03727464
56	0x3b47d0c0	0.0030489415
57	0x3867b220	5.5240584e-05
58	0xbd0c0aec	-0.034190103
59	0x3c5377ca	0.012906978
60	0x3c869c9f	0.016432105
61	0x39ad1b67	0.00033017548
62	0xbd0f6804	-0.035011306
63	0x3d5374de	0.051625125
64	0xbc55bc68	-0.013045408
65	0x3b39491d	0.0028272339
66	0xbd0205d7	-0.03174385
67	0xbd8a5a3b	-0.06755491
68	0xbc8de41a	-0.017320681
69	0xbd071db2	-0.032987304
70	0x3d48f218	0.049059004
71	0x3e9adfa0	0.30248737
72	0x3d96925a	0.07352133
73	0xbbea57e3	-0.00715159
74	0xbcc87023	-0.024467533
75	0x3caaf354	0.020867981
76	0x3c42fffc	0.011901852
77	0x3b97ffd1	0.00463865
78	0x3c115203	0.008869651
79	0xbd9cbad6	-0.076528236
80	0xbbbf866f	-0.005844883
81	0x3b506c87	0.0031802969
82	0xba45d34b	-0.0007546439
83	0xbd47bcc1	-0.048763994
84	0xbbc562e8	-0.0060237534
85	0xbba0b239	-0.0049040583
86	0xba391e89	-0.000706174
87	0xb810f4d5	-3.4560293e-05
88	0xbbf3cd59	-0.007440251
89	0x3d19bfc9	0.037536416
90	0xbc2c42b5	-0.010513951
91	0xbbc06575	-0.0058714696
92	0x3d63df51	0.055632893
93	0xba16dea6	-0.0005755223
94	0x3aa8dae2	0.0012882615
95	0x3b487349	0.0030586293
96	0xbc78849d	-0.015168336
97	0xba9d23b1	-0.0011988786
98	0xbae0d476	-0.0017153162
99	0xbcf3c667	-0.029757692
100	0x3d36e61c	0.044653043
101	0x3b6fb319	0.0036575256
102	0xba05a8c5	-0.0005098696
103	0xbba06404	-0.0048947353
104	0xbb1cab19	-0.0023905693
105	0xba8e6913	-0.0010865055
106	0x3d597806	0.05309298
107	0x3a7350ca	0.0009281753
108	0x394b1257	0.00019366421
109	0xbd4a8485	-0.049442787
110	0xbca3255a	-0.019915272
111	0x3c3add25	0.011405264
112	0xbc1dedcf	-0.0096392175
113	0xba960cfb	-0.001144796
114	0xbcb1a996	-0.02168731
115	0xbc8390fd	-0.016060347
116	0xbd62d89f	-0.055382367
117	0x3913cd72	0.00014095547
118	0xbcc81716	-0.02442507
119	0x3c1518a0	0.009100109
120	0xbcb0008b	-0.021484634
121	0xbd21f245	-0.039537687
122	0xbbbc3fcf	-0.0057449113
123	0xbd31ae24	-0.043378964
124	0x3ceecd08	0.0291505
125	0xbc8cf67e	-0.01720738
126	0xbb9bc5e0	-0.004753813
127	0xbc12acab	-0.0089523
