demo/weights/prelu-3_3_alpha_0.npy (npy, 1104 bytes, 1 tensors)

array f4 [1, 1, 256]
000000 27 83 a9 b6 8b 11 b2 be 52 5f eb bd 99 3d c3 3d
       -5.0518606e-06 -0.3477901 -0.1149279 0.09533233
000010 9a 74 ae 3d 10 18 8b 3b 87 ce 30 bd 69 9b ae bd
       0.08518334 0.004244812 -0.04316571 -0.08525736
000020 c7 d4 0d 3e 12 97 f2 3a ed fd c8 bd 87 20 82 39
       0.138507 0.0018508157 -0.098140575 0.00024819767
000030 6e c9 3d 3d 98 ec 4d be 90 6a 07 3d 25 61 7d be
       0.046334676 -0.20109785 0.03306061 -0.24744089
000040 7f 04 22 bb 0d 76 a7 bd 3c ba f4 3a 9a 3d ac be
       -0.0024721918 -0.08176813 0.0018671225 -0.33640748
000050 77 bb 05 bf aa a6 33 3e 43 db 31 be 3a d1 5c be
       -0.52239174 0.17544046 -0.17368798 -0.21564189
000060 6a 39 da 3b 6a f7 b1 be da f0 0f 3c 15 79 a1 be
       0.0066596763 -0.34759074 0.008785451 -0.3153769
000070 72 84 3c be d9 48 b3 3b c9 45 9a 39 a2 64 a2 be
       -0.18409899 0.0054713306 0.00029425163 -0.31717402
000080 f0 75 a7 bd 0d 3c 2b be 56 bb 3b bd 69 5e 41 be
       -0.08176792 -0.16722126 -0.045832954 -0.18883671
000090 e4 c5 99 3d 26 bb 61 be 60 1e 8a be 82 c6 68 bd
       0.07508448 -0.22044048 -0.269763 -0.056829937
0000a0 89 8e 44 bb 08 b9 c8 3a 89 14 2f be b0 63 85 be
       -0.0029992184 0.0015313933 -0.17097677 -0.26052618
0000b0 4d fc 22 be 80 b1 9f 3c 46 ca 99 3c db ec 39 be
       -0.15916558 0.019493818 0.01877321 -0.1815676
0000c0 01 3c 9a 3c 19 43 34 bc f4 51 ce bd 26 3e ae be
       0.01882744 -0.011002325 -0.10074225 -0.3403179
0000d0 02 93 df bd d4 3d a6 be d3 95 53 be 75 23 2a bb
       -0.109167114 -0.32469046 -0.20662622 -0.0025961075
0000e0 ad 9b 3f be 39 e8 a2 be ea 2a ad 3b 19 33 46 bb
       -0.1871173 -0.31817797 0.005284657 -0.003024286
0000f0 d6 ca 07 be 92 de 17 be eb a9 f3 bd 46 d5 2d be
       -0.1326097 -0.14830998 -0.11897644 -0.16975889
000100 18 00 9a be 58 af 9c 3c 20 e8 35 be e7 f4 42 be
       -0.30078197 0.01912658 -0.1776433 -0.19038735
000110 0f 84 1f be 5c 1a 8e be 7c 00 5e be ba 83 16 be
       -0.1557772 -0.27754486 -0.21679872 -0.14698687
000120 51 39 91 bd 52 02 77 be c0 63 89 be 50 ae 82 be
       -0.0709101 -0.24121979 -0.26833916 -0.25523615
000130 4e 19 43 3b 42 f9 6a be 88 4d 17 be 13 3b 04 3d
       0.0029769721 -0.22946647 -0.1477567 0.0322829
000140 84 c5 ff bd 5c 1f c2 3a 5f 82 00 be 32 6c ed bd
       -0.12488845 0.0014810371 -0.12549733 -0.11592902
000150 41 9c e7 ba db 1e 6b be 74 5d 15 bb 57 c3 d0 3d
       -0.0017670469 -0.22960989 -0.0022791298 0.10193508
000160 c8 25 28 be a8 8f cf bd 3b 1f df bd 00 d3 3a be
       -0.16420662 -0.10134822 -0.108946286 -0.18244553
000170 85 db b5 3d 00 b2 b8 37 fb 5d 13 be 79 1f 96 bc
       0.08879761 2.2017397e-05 -0.1439132 -0.018325554
000180 d0 32 b2 be d8 97 a6 3c 84 dc 89 be f2 ec 01 3b
       -0.34804392 0.020336077 -0.26926053 0.0019825068
000190 00 62 2d bc 63 0f 69 be 1b 0e 32 be 39 0b f5 b6
       -0.010582447 -0.22759776 -0.17388193 -7.3028755e-06
0001a0 cc dc 20 3c da 87 86 be 69 e0 a4 bd be 71 71 be
       0.009818267 -0.26275522 -0.08050615 -0.23578545
0001b0 5c 81 80 3b 27 19 84 3e ca 04 3c be 2a 8e f3 bd
       0.003921671 0.2580044 -0.18361202 -0.1189235
0001c0 24 f5 87 be 90 f2 c3 bd 9f c0 cf bd c5 2a 8b 3e
       -0.26554215 -0.095677495 -0.101441614 0.27181068
0001d0 ac 54 62 be c2 98 2c be 26 2e d8 3a d6 b8 98 bd
       -0.22102612 -0.16855147 0.0016493245 -0.0745713
0001e0 4c 1a 6a be 66 2a 21 3e 0a 0e 58 be a5 48 d9 bd
       -0.22861594 0.1573883 -0.21099105 -0.10609559
0001f0 16 26 af bd f2 ae 74 be d7 2f b7 3a 9e 7f 00 3e
       -0.08552186 -0.23894861 0.0013976049 0.12548682
000200 99 7c 60 be ee 7a 6b be 97 64 0b 3d 0c aa 0d be
       -0.2192253 -0.22996113 0.034031477 -0.13834399
000210 08 24 56 be 57 ce 76 bb 96 97 0d be e0 8b 0b be
       -0.20912182 -0.003765961 -0.13827357 -0.13627577
000220 15 69 65 be 42 ad a7 bd 51 e6 83 3c f5 18 b1 3a
       -0.22403367 -0.08187343 0.016101034 0.0013511466
000230 32 19 81 be f6 22 0a be ea 05 81 3e 17 ea 15 be
       -0.25214535 -0.13489899 0.25199825 -0.1464008
000240 a0 1e 69 be 5c db 6c be 4a a5 bb bc 1f d0 6e 3b
       -0.22765589 -0.23130554 -0.022905964 0.0036439968
000250 80 f2 20 be 78 0f 82 3b a9 38 4d bd a5 4f 55 be
       -0.15717506 0.003969129 -0.050102863 -0.20831163
000260 a4 9e 99 3b 4f c0 07 39 de 01 39 bd 8f a1 02 3a
       0.004688101 0.00012946244 -0.045167796 0.00049831806
000270 b8 0b 59 be 8f c8 28 ba 1e b2 67 be a9 44 c6 3d
       -0.21195877 -0.0006438577 -0.2262654 0.09681065
000280 34 58 88 be f0 54 a9 ba 68 d7 d8 3d d8 39 30 be
       -0.26629794 -0.001291899 0.105879605 -0.17209566
000290 95 b1 09 be fc d0 84 be 47 66 61 be 9b ba 7a be
       -0.13446648 -0.25940692 -0.22011672 -0.24485247
0002a0 43 9a 57 3c e4 ef f9 bd 05 27 83 bd 57 73 2b 3d
       0.013159337 -0.12203959 -0.06403927 0.041858044
0002b0 cd c0 e0 be 2e b9 97 be 88 72 43 3d bf 0b 50 3b
       -0.43897095 -0.29633468 0.047716647 0.0031745282
0002c0 7d 3e 46 be 6a 8d ed 3e b5 65 0d 3b f0 1d bc 3e
       -0.19359775 0.46396953 0.0021575515 0.3674159
0002d0 b4 4f fe 3d 6c bc 21 be d8 77 7c be dc 2b 84 be
       0.12417546 -0.15794533 -0.24655092 -0.25814712
0002e0 ba 31 39 3b 36 bc 1c be 8f a5 b3 3a b8 1a 57 3b
       0.00282584 -0.15306172 0.0013705957 0.0032822322
0002f0 01 c1 41 be a3 c5 4d bd 76 6e 91 bc 96 89 8c bd
       -0.18921281 -0.05023731 -0.017752867 -0.0686218
000300 9e 36 ed bd 1e 67 31 3c 45 95 25 be 89 10 7b be
       -0.11582683 0.010827808 -0.16170223 -0.24518026
000310 07 2d 1a be 09 45 90 bd cc f7 0b be b6 40 75 3b
       -0.15056239 -0.070444174 -0.13668746 0.0037422604
000320 ac b3 a5 bd a6 8b 25 be eb b3 8b 3b 02 d1 48 be
       -0.0809091 -0.16166553 0.0042633913 -0.1961098
000330 d2 8a 81 3b 57 36 00 39 08 ac 31 b9 3b b8 5e 3e
       0.0039533162 0.00012227274 -0.00016944122 0.21749966
000340 9e 36 68 ba 5f 82 7b 3b b9 81 59 be 43 39 a7 3c
       -0.0008858236 0.0038377268 -0.21240892 0.020413047
000350 97 6f 13 3d c1 d6 44 be ea 8d 47 be 3e fd 47 be
       0.035995092 -0.19222547 -0.1948773 -0.19530198
000360 f6 66 60 be d2 41 47 be 89 6a 9b be 12 3e 0c bd
       -0.21914276 -0.19458702 -0.30354717 -0.034238882
000370 43 09 28 3b 3f c6 0f be 16 6e 98 be 22 02 5c be
       0.0025640286 -0.14040469 -0.2977149 -0.21485189
000380 22 ca 29 3c 47 53 3a be a3 3d 97 be 74 0e 17 3d
       0.010363134 -0.1819583 -0.29539213 0.036879018
000390 42 d5 37 bd 1a c7 3e be 98 fe 9a ba 69 90 58 bb
       -0.044881113 -0.18630639 -0.0011825142 -0.003304506
0003a0 72 d9 63 be 24 b5 6c bd 57 19 66 be dd 45 2d 39
       -0.22250918 -0.057789937 -0.22470604 0.00016524592
0003b0 41 62 62 be 22 d4 57 be 3c 6d c1 bd 78 14 28 3e
       -0.22107793 -0.21077016 -0.09444663 0.16414058
0003c0 74 c2 fc ba 72 6f 7c 3e e5 10 3b b8 18 70 33 ba
       -0.0019284026 0.24651888 -4.460001e-05 -0.00068450114
0003d0 e9 1e 93 be 56 51 7e be fe 18 44 bc 88 9a 84 3b
       -0.2873452 -0.24835715 -0.011968849 0.004046742
0003e0 5f 96 c4 be 4c 72 80 3b 44 a4 20 bc 94 be e1 bd
       -0.38395974 0.0039198752 -0.009804789 -0.11022678
0003f0 20 dd 36 b9 e5 fc d8 3b 6e 4c ab be f0 4e 01 3a
       -0.00017439248 0.0066219443 -0.3345675 0.0004932722
