demo/weights/prelu-seg_2_1_alpha_0.npy (npy, 592 bytes, 1 tensors)

array f4 [1, 1, 128]
00000000: 3c05 12be c1df 13bd b003 e7bd 8107 58be
00000010: baa9 3dbc b022 b7bd 0eea 2cbe 5cad ad3b
00000020: 7d63 c2bc 9a49 e8bc e945 3abd 89a6 efbd
00000030: 6f60 6dbd 7b81 0fbd fa5d b4bc 274d a6bc
00000040: bf11 1ebd 4025 f8b8 60f8 46bd 1274 39bd
00000050: a45e d7bd df11 7cbe 92c1 b4bc e62d 44bd
00000060: 8028 2dbe 43dd b3bd 6f7a a1bd 52e6 7dbd
00000070: 333a ebbd f787 a03c 0fc5 f0bc 5c31 25bd
00000080: 720b 97bc 25bb f9bd 9c75 00be 1858 babb
00000090: 889c e43a 64dc 71bc 982c 153b 95f0 79bd
000000a0: 99a7 ddbd 6046 bebd 4b96 473b 4c3c 34be
000000b0: 26b8 973c 6258 60bc 9d5c 3bbe e544 babd
000000c0: 9957 bfbc 3b8d 10be 2077 783c 3c9b 8fbd
000000d0: 8b0e 90be 045e adbc 9d4b cebb 6509 57bc
000000e0: 5559 86bd a14a 30bb fc7a b6bc 3f82 1fbd
000000f0: cf58 273c d9f6 88be 971f 07bd 080e c2bd
00000100: 3bff 4abe e8da c03c f204 92bd 5548 e2bc
00000110: f597 97be 1287 0e3d caca 64bb 2db1 973b
00000120: 50d7 90bd fcbc 77bd 0c54 23be a9cd 173b
00000130: d624 d6bb fb8a 71bd 4232 fcbd 226d c1bd
00000140: de0d 55be 20f6 c8bd 8c87 13bd 51e4 07be
00000150: 0648 16be 672c cfbd 3c66 70ba ceb7 8b3b
00000160: a494 aabc 573c 91bd 768c 2ebe fa6e 3abe
00000170: c0bc edbd faf2 26be f868 dbbc 253a 83bc
00000180: 268d 88bc b7b4 59bc 5183 f7ba 96fe b03a
00000190: 0824 783c f9e1 46be a3f0 c53c 0a70 c0bd
000001a0: 96bd 143d 0d8b 52be 966c 77bb 4e91 0cbb
000001b0: 74f6 74be 06e3 013c aa74 07bd 4bb0 25be
000001c0: bbc6 4ebe 6f77 b93c f0f4 8d3d a0f1 1f3c
000001d0: 018f 0fbd 57f3 32bc 71a5 b4bc 9d53 2ebd
000001e0: 1882 8030 f132 54bb f103 05bd 49cf 9dbc
000001f0: 4f37 35bd 9393 b33b 7d62 6dbc 5528 09bd
-0.1425981 -0.03610206 -0.1128 -0.21096613 -0.0115761105 -0.08942163 -0.1688616 0.005300207
-0.02372908 -0.028355408 -0.045476828 -0.11701686 -0.057953294 -0.03503559 -0.022017468 -0.020300461
-0.038591143 -0.000118325 -0.048576713 -0.04527671 -0.10516098 -0.24616192 -0.022064958 -0.047895335
-0.16909981 -0.08782437 -0.078846805 -0.06198723 -0.1148571 0.019596083 -0.02939084 -0.040330276
-0.018438075 -0.12193898 -0.12544864 -0.005686771 0.001744167 -0.014762018 0.0022762176 -0.061020453
-0.10822982 -0.09290767 0.0030454572 -0.17601126 0.018520426 -0.013692947 -0.18297048 -0.09095172
-0.0233572 -0.14116375 0.01516512 -0.070120305 -0.28136095 -0.021162994 -0.006295635 -0.013124798
-0.065600075 -0.002689995 -0.02227544 -0.03894257 0.010214045 -0.2675083 -0.03298911 -0.094753325
-0.19823925 0.023541883 -0.071298495 -0.027622381 -0.29608122 0.03479678 -0.003491091 0.0046292753
-0.070723176 -0.060482964 -0.1595003 0.0023163354 -0.006535153 -0.058970433 -0.123142734 -0.094446436
-0.20806071 -0.098125696 -0.03601794 -0.1327069 -0.14675912 -0.10115891 -0.00091705075 0.0042638546
-0.02082283 -0.07091587 -0.17045769 -0.18206397 -0.11608267 -0.16303626 -0.026783451 -0.016018936
-0.016668867 -0.013287715 -0.001888374 0.0013503607 0.015145309 -0.19422139 0.024162596 -0.0939637
0.036313616 -0.20560856 -0.0037753931 -0.0021448913 -0.2392214 0.007927662 -0.033070244 -0.16180532
-0.20192997 0.022639958 0.06931484 0.009762198 -0.03504849 -0.010922275 -0.022051545 -0.04256021
9.350201e-10 -0.0032378996 -0.032474462 -0.01926388 -0.0442422 0.0054802387 -0.0144888135 -0.03348573
