demo/weights/prelu-ori_1_1_alpha_0.npy (npy, 592 bytes, 1 tensors)

array f4 [1, 1, 128]
000000 2f 22 70 bc 82 38 24 bd 54 35 15 3c d8 34 51 bc
       -0.0146565875 -0.040092953 0.009106953 -0.012768947
000010 48 ec 79 bc 33 63 cf 3b b3 e3 9f bc 09 e6 2b 3d
       -0.015254088 0.006328964 -0.019517755 0.041967425
000020 ed 06 4d bc 58 a5 10 bd 9d 64 cf bc cd 1e 98 3c
       -0.012513858 -0.035313934 -0.02531653 0.018569374
000030 4a d5 42 bd 23 76 cb bb 71 43 97 bc c8 0f d4 3c
       -0.04756669 -0.0062091514 -0.018464776 0.025886431
000040 d1 3f df bc 23 59 bf 3d 5e eb 0c 3d 38 c2 a1 bc
       -0.02725211 0.09343173 0.03440415 -0.019745931
000050 8b d9 26 3d 5e ef 95 3c 7c c9 1d 3a af 41 00 3d
       0.04073481 0.018302616 0.0006019098 0.03131264
000060 19 34 51 bd e3 ef ab 3c f4 10 bf bc 41 cd 93 3c
       -0.051075075 0.02098841 -0.023323514 0.018042209
000070 da 1c 1b bc 9a 61 0f 3b 6b d3 24 3c 75 b4 8b 3b
       -0.009467328 0.0021878243 0.010060172 0.0042634555
000080 a1 4f f7 bc ef 98 b7 3a e4 d6 aa bd 25 8e 40 3c
       -0.030189337 0.001400737 -0.083417684 0.01175264
000090 d0 8f 3b 3c 8a 12 39 3d c5 f2 47 3c 6b 07 fc bb
       0.011447862 0.045183696 0.012203877 -0.007691314
0000a0 12 77 6d 3b de c9 3a 3a 67 fe db 3c 7a fb 16 3e
       0.0036234302 0.00071254175 0.026854707 0.14744368
0000b0 12 6a 86 bd 74 7b 07 bc 1e 7d 3d bd 85 1e 99 3d
       -0.065632 -0.00826918 -0.0462619 0.07476524
0000c0 c7 e8 86 3c 5c 00 3f 3b 17 90 a3 bc 17 ba cc bc
       0.016468419 0.0029144501 -0.019966168 -0.024991078
0000d0 0c 14 04 bd be e7 f7 3c bd a9 0a 3d 32 ea 06 bd
       -0.03224568 0.03026187 0.03385328 -0.03293819
0000e0 5d cb 43 3d 38 d7 5e b9 ac cb aa 3a 51 19 4d 3d
       0.047801364 -0.00021251745 0.001303067 0.05007297
0000f0 4d c2 6e 3c d5 3c 83 bc 5d 55 3d bd 74 8f 7f bc
       0.014572692 -0.016020218 -0.046223987 -0.015598167
000100 2a 14 1e bc 05 4d e6 3b c4 b4 0c 3b 12 48 17 ba
       -0.009648362 0.0070282244 0.002147005 -0.0005770932
000110 7a 39 05 bc dc 45 e9 bc fe 2c 79 3d e2 78 79 3d
       -0.008131379 -0.028475694 0.060833924 0.0609063
000120 22 27 78 3d 1f 0e 0e 3d 43 e3 43 3d f7 0d ab 3c
       0.060584195 0.034681436 0.047824156 0.020880682
000130 1a 33 25 3d d0 04 2d bd 3b b6 be bc 9f 3c cc 3d
       0.040331937 -0.042240918 -0.023280254 0.099725
000140 ff 0c 89 3d 4d 43 c1 3c 4c 6d ad bc fc 40 01 bd
       0.06691932 0.023591662 -0.02117028 -0.031556115
000150 86 f0 10 bd 45 ff c5 3b a8 6e 9a 3b d3 ca f8 bc
       -0.03538563 0.0060423934 0.0047128983 -0.030370152
000160 cb 7c 17 3c 4b 7c 1c bc eb d0 84 bb 90 90 0d 3d
       0.009246062 -0.009551118 -0.0040532253 0.034561694
000170 24 0b ce 39 0e 68 86 ba be 88 2c bd 12 fd 3d bc
       0.00039299682 -0.0010254399 -0.042122595 -0.011595981
000180 39 fd 42 bd c0 9c 68 3c 11 a8 69 3e c9 6c 6a bb
       -0.047604773 0.014197528 0.22818018 -0.0035770407
000190 01 8b b2 3c 98 dd 43 bc b3 00 85 bb a7 2a 69 3c
       0.021794798 -0.011954688 -0.0040589212 0.0142313605
0001a0 19 65 ec bc bb a2 3e 3d 8f f6 67 3d bc b9 a3 3d
       -0.0288568 0.04654191 0.05663162 0.079944104
0001b0 85 98 48 bc 0d 6d 8e bb 00 7b b0 ba 29 04 82 ba
       -0.012243395 -0.004346496 -0.0013464391 -0.0009919453
0001c0 11 88 fa 3a ec a5 99 3d f4 57 fd 3d 1f ff 70 bc
       0.0019114037 0.0750235 0.12370291 -0.014709263
0001d0 c2 37 1c bc 61 6b cd bc 73 63 4c 3d 54 73 17 bd
       -0.009534778 -0.025075616 0.04989953 -0.03697522
0001e0 65 3c 55 bc e4 22 53 bc 73 34 5b 3c 4a 18 d0 3c
       -0.013014887 -0.012886737 0.013379204 0.025402207
0001f0 f2 e2 34 bd 68 f6 0e bc d5 91 be 3b 55 3c 06 bc
       -0.044161744 -0.00872574 0.0058157244 -0.008193095
