demo/weights/seg_3_2_kernel_0.npy (npy, 592 bytes, 1 tensors)

array f4 [1, 1, 128, 1]
000000 e6 74 82 be 2c 6f 63 be c4 25 b5 3d eb 22 49 3e
       -0.2547981 -0.22210377 0.08845094 0.19642226
000010 f1 ac 17 be 25 c6 b7 bb 99 22 8a 3e f6 a0 19 bd
       -0.14812066 -0.0056083375 0.2697952 -0.03750702
000020 ee f3 95 be 7e 19 73 3e 28 90 9b bd 68 e5 36 bd
       -0.29287666 0.23740193 -0.07595855 -0.044652373
000030 e5 83 87 bc ac 13 a7 3d 7c 08 86 be 21 a4 2d 3d
       -0.016542384 0.08158049 -0.26178348 0.042392854
000040 50 45 36 be 2e 11 7e 3e d4 da be bd 84 55 4c 3e
       -0.17799878 0.24811241 -0.09319082 0.19954497
000050 3f 6f 49 3e 80 0b 10 be b5 d4 9d bd 59 12 9a be
       0.19671343 -0.14066887 -0.07706586 -0.30092123
000060 30 d8 ab 3e c0 23 dd bd cd ac 9b bd 00 09 30 be
       0.33563375 -0.107978344 -0.076013185 -0.17190933
000070 33 22 06 3e d0 a6 d0 3d 74 a1 84 3d 15 0e 06 bf
       0.13098983 0.10188067 0.06476107 -0.5236524
000080 e1 82 c2 bd a3 6a 48 3e 22 07 c3 39 87 5c 22 3e
       -0.094976194 0.19571929 0.00037198613 0.15855609
000090 14 9d c3 be 57 69 02 3d b3 05 26 be 8d c5 78 3d
       -0.3820578 0.03183874 -0.16213112 0.060735274
0000a0 b1 6a 38 3e 5d 9f fb bc bd 79 4b be af 40 60 be
       0.1800945 -0.030715639 -0.19870658 -0.21899675
0000b0 d0 24 53 3e 43 8f 35 be 4b a0 37 bd cb ea 53 3e
       0.20619512 -0.17730431 -0.0448306 0.20695035
0000c0 c3 b9 55 3e e1 86 94 3d c1 77 52 bc 9c d4 39 3e
       0.20871644 0.072522886 -0.012845934 0.1814751
0000d0 6b ba 1f be 4f ad 93 3e 48 c2 e0 3d 2d 97 5d 3e
       -0.15598457 0.2884316 0.10974556 0.216397
0000e0 83 0d 26 3e 1d 04 15 be 72 0f fb 3d 12 b4 24 be
       0.16216092 -0.1455235 0.12258805 -0.16084316
0000f0 f0 a5 88 3e 45 01 b0 bd a8 4a 2a be 3a b4 30 be
       0.266891 -0.08593992 -0.16630042 -0.17256251
000100 33 ec cd bd 8c 53 0f 3e 5e 00 8b be 94 13 01 3e
       -0.10054817 0.13996714 -0.27148718 0.12605125
000110 ec 03 77 bd 56 36 64 be f1 c1 2b bd 79 a4 03 ba
       -0.060306475 -0.22286353 -0.041933004 -0.0005021762
000120 c9 19 8e 3d 65 83 14 be e0 bd 74 be 60 87 29 3e
       0.06938512 -0.14503248 -0.23900557 0.16555548
000130 ac 05 fd 3d 01 0c c5 bd 6a 5d 27 be 5f 95 00 be
       0.123545974 -0.0962143 -0.16344228 -0.1255698
000140 7e 3c 53 bd cb 24 f8 3a dd c8 48 be c0 8a 08 bc
       -0.05157136 0.0018931864 -0.19607873 -0.008333862
000150 10 f4 02 3e 86 57 8a bd 99 4e b6 bd cd b1 33 3d
       0.12788415 -0.06754975 -0.0890171 0.043870736
000160 24 b9 68 be 86 b1 f3 3d ee 46 05 be 5e ac b5 be
       -0.22726876 0.11899094 -0.13015339 -0.35483068
000170 b6 56 fd bd df 20 64 3d e1 f7 c7 3d c7 f5 9b be
       -0.123700544 0.05569541 0.09764076 -0.3046095
000180 6e b7 aa bd d4 8b 54 3d 6c b3 9a 3d c6 9e 10 3e
       -0.08335768 0.051891163 0.07553753 0.14123067
000190 bf 54 bb be ab 69 31 be 87 da eb bd f1 00 ea bc
       -0.36588094 -0.17325465 -0.1151629 -0.028564902
0001a0 64 d5 09 3d b0 07 f7 be e1 80 7c 3d b4 de 84 bd
       0.03365077 -0.48248053 0.061646346 -0.0648779
0001b0 e8 b4 a5 bb d6 98 40 be de b5 07 3e 87 24 b6 bd
       -0.005056966 -0.18808302 0.1325297 -0.08893686
0001c0 78 b7 3f be ce e7 61 be 2b 1a 79 3d c6 df 7d 3e
       -0.18722332 -0.22061083 0.06081597 0.24792394
0001d0 79 66 09 bf 47 4b 31 be 71 0d bd be 48 76 b3 bd
       -0.53671986 -0.17313872 -0.36924317 -0.08762795
0001e0 6b a1 49 3d 31 73 10 be d6 ef 58 3e 57 94 bb bc
       0.049226206 -0.14106442 0.2118524 -0.022897882
0001f0 02 d7 1e 3e f8 a5 27 be 3e 8c b4 ba 73 61 59 bd
       0.15511706 -0.16371906 -0.0013774706 -0.05307145
