demo/weights/seg_1_2_kernel_0.npy (npy, 592 bytes, 1 tensors)

array f4 [1, 1, 128, 1]
00000000: d199 1b3e 3015 583d ab08 60bd 2ced 48bd
00000010: 5d0e 5c3e d323 ab3d f5dc 76bd e905 8b3d
00000020: cd41 b4bd 379b 7e3d f86f 9a3d 7eed 0c3e
00000030: 4e4b 923d 95da b13d 45b0 353d b668 a43d
00000040: 3953 fb3d 1e76 d73d 6867 3bbc 1c4f 9fbd
00000050: e47f b73d 59fc 7fbc ff6f 213d 0810 d7bc
00000060: b1a8 0fba 0eb9 ebbc 5308 aebc b183 b1bc
00000070: 2da0 5d3c 9796 a5bd bf1a 01bd a0a3 24bd
00000080: 1cde 03bd f95b 59bc 703d 333d 333d 5d3d
00000090: 33dd 983d 0e9d eebc 3afe 93bd e04c 58bd
000000a0: 307d a63d 0c57 483d 881f 6b3d 5674 29bd
000000b0: 1a4b 303d 614f 753d e4f1 bd3c 61cf 10bd
000000c0: 023e a23d 5216 0e3e 1435 1ebd 8756 8b3d
000000d0: da48 05bd 9d46 b4bd f2ad 223d 26a3 85bd
000000e0: 6657 ab3d ae40 ca3d a298 ad3d 831c df3d
000000f0: d94e dfbc 7d09 53bd 3018 bfbc 68b0 ea3c
00000100: 9c58 fc3c 3b9b ca3d 9846 86bd 6641 32bd
00000110: 733f 23bd b11f 6ebd 9130 823d ec14 aa3d
00000120: 22d7 473d 17c0 663d 5367 a6bd a6f4 a1bd
00000130: 2f5b 243e 1d00 b33d 3803 b73d 33f7 363d
00000140: 1428 b82d e411 71bd c609 ddbd 6a1d c1bd
00000150: 7ae0 4fbd b29a d03d fa24 5f95 87ff 133e
00000160: fd20 d33d 413d 97bc cd3e 78bd 5f68 dcbc
00000170: bd5c 24bd 39d3 22bd e5d6 79bd c131 b33d
00000180: 988d 8f39 f310 27bd a8bc 193e 68d1 7c3d
00000190: 901e 6bbd ec24 013e 534f 653d cfbe d2bc
000001a0: f1a5 85bd 4aa4 3fbd 1d36 4fbd a819 a33d
000001b0: b977 183e ff4f a2bd 69ff 8c3d de14 b23d
000001c0: e8a2 1a3d 13f7 d33d 67af 66bd 8f92 a93d
000001d0: e8f0 a23d 93dd 3b3d e340 35bd 489a 4f3d
000001e0: dcd6 cdbd e38c 43b1 6c71 bd3d d919 413d
000001f0: 90ae 343d 95ee 863d 350d 8e3d 908f 71bd
0.15195395 0.05275458 -0.054695766 -0.04905431 0.21489854 0.08356442 -0.060269315 0.06788237
-0.08801613 0.062159743 0.075408876 0.13762471 0.071432695 0.08684269 0.044357557 0.080277845
0.12271733 0.10520576 -0.011438228 -0.07778761 0.0895994 -0.015624129 0.03941345 -0.026252761
-0.0005480154 -0.028774764 -0.021244204 -0.02166924 0.013526958 -0.08085363 -0.031519648 -0.040195107
-0.032194242 -0.013266557 0.043759763 0.054013442 0.074640654 -0.029127624 -0.07226224 -0.05280769
0.08129346 0.04891114 0.057403117 -0.041370712 0.043040372 0.059890155 0.023186632 -0.035354022
0.07921983 0.13875702 -0.038624838 0.06803613 -0.03254018 -0.08802531 0.03971667 -0.06525259
0.08366279 0.09875618 0.08476378 0.1089411 -0.027259277 -0.05152272 -0.023326963 0.02864857
0.030803971 0.09892889 -0.065564334 -0.0435194 -0.03985543 -0.058135692 0.063569196 0.08304772
0.04878915 0.056335535 -0.08125176 -0.07907991 0.16050409 0.08740256 0.08936161 0.04466934
2.0936176e-11 -0.058854952 -0.1079288 -0.094294384 -0.050751187 0.10185756 -4.506366e-26 0.14452945
0.103090264 -0.018461825 -0.060606766 -0.026905237 -0.040127505 -0.03975222 -0.060995955 0.08749724
0.0002738058 -0.04078765 0.15013373 0.061723143 -0.057402194 0.12611741 0.055983853 -0.02572575
-0.065257914 -0.046787538 -0.050588716 0.07963878 0.1488942 -0.07925414 0.06884653 0.08695386
0.037753016 0.1034986 -0.05631962 0.08279907 0.079561055 0.045865607 -0.044251334 0.050684243
-0.10050747 -2.845632e-09 0.09250149 0.04714379 0.04411179 0.06588475 0.06936113 -0.058974802
