demo/weights/seg_2_2_kernel_0.npy (npy, 592 bytes, 1 tensors)

array f4 [1, 1, 128, 1]
00000000: 19a3 223e 186c 923d cbee 48bd 2597 fe3d
00000010: 115f 49bd fe3b fa3d 79b0 d53d ef0d 37bd
00000020: b193 233e 06ea b7bc c710 073e 6062 bfbc
00000030: 3baf 673d 3ff2 183e a970 cb3e a001 4f3d
00000040: c576 81bd 4cbe 8fb7 5463 893d fadc bb3d
00000050: b171 7cbc ec0b 913d 3624 c2bc 331e 00bd
00000060: 7661 5bbe 743b 7fbc 389d d73d 8864 0c3e
00000070: 37ac 26be 26c8 86bd 9a2d ed3d f409 44bc
00000080: 8dc2 99bd fda9 c23d 294c 09be 5249 253e
00000090: ed0d a23b 2a3d 343e 4a0f 36bd 5c94 d13d
000000a0: 7b60 ecbc 8042 f2bd c407 f3bc 5ac3 be3d
000000b0: 272b 4cbd a13d ff3d 7a3d 0f3d 5b66 953d
000000c0: dfb9 f5bc 32d9 d43d dec2 4bbe 2004 94bd
000000d0: be22 ee3c 3c0f d5bc 7383 343e 6837 5dbe
000000e0: 5516 183e 7701 57bd fcb7 75bc 5bb4 473e
000000f0: a353 14bd d2d1 5d3d c5e1 1a3e 895a 073e
00000100: a886 40be 489a 6fbd 2c73 193e 893f ef3d
00000110: 1f3b ac3d 0514 dfbc 81cf 87bd 1fbc d0bd
00000120: 0e91 aebd 90ef 2e3e a50f 873d 572d 2abd
00000130: 2578 d5bd 70f7 33be aed9 01be 8910 a63d
00000140: 56d9 c33d 68a6 1b3e 0d24 ef3d d332 3e3c
00000150: 3ea9 0a3e 15ad ac3d 6a54 3abd 8721 34bd
00000160: f9d5 c4bd 478b 30be 3bf5 7f3d 806d a03d
00000170: e776 aa3d 33ac d93d e4dd f93d 601b 003e
00000180: b324 00bd 3c56 2fbd 0f57 a9bc ec9d 39bd
00000190: 8839 96bd b47a 013e 8a40 7cbe 464d 08be
000001a0: 13f6 b3be f215 c53d 36e7 62bd acdd 54be
000001b0: c942 07be b5c3 90bd b213 5bbd 7aec fc3d
000001c0: 6fcb 9f3d 514d 30be 5065 5dbe 3a18 72bd
000001d0: c302 133e 1c27 f13d 44f8 2cbd bd41 e83d
000001e0: 8652 7d30 10e9 5abd 3140 6139 f9cf d23e
000001f0: 31d7 0b3e 755a 3abe 9631 82bc 791d 2a3e
0.1588253 0.071495235 -0.049055856 0.12431172 -0.049162928 0.12218474 0.1043405 -0.044691022
0.15974309 -0.022450458 0.13189994 -0.023362339 0.056563597 0.1493616 0.3973439 0.05053866
-0.063214816 -1.7135542e-05 0.067083985 0.09173007 -0.0154079655 0.07082352 -0.023698907 -0.0312788
-0.21423897 -0.01557814 0.10528034 0.13710225 -0.16276632 -0.06581144 0.115809634 -0.011965264
-0.07507811 0.09505079 -0.13407959 0.1614125 0.0049455077 0.17601457 -0.044448175 0.102333754
-0.0288546 -0.1182909 -0.029666789 0.09314604 -0.04984584 0.12462927 0.034970738 0.072949134
-0.029995857 0.10392989 -0.19898555 -0.07227349 0.0290693 -0.02600824 0.17628269 -0.21603167
0.14852269 -0.05249163 -0.014997479 0.19502394 -0.036212575 0.05415518 0.15125187 0.1321813
-0.18801367 -0.058496743 0.14985341 0.1168204 0.08409714 -0.027231226 -0.06631375 -0.10192131
-0.08523761 0.17083573 0.06594781 -0.041547146 -0.104233064 -0.17574859 -0.12680694 0.081086226
0.09562938 0.15200198 0.11676798 0.011608797 0.13541123 0.0843145 -0.04549066 -0.043977287
-0.096111245 -0.1724063 0.06248973 0.078333855 0.0832346 0.106285475 0.122005254 0.12510443
-0.031285 -0.04280685 -0.020671396 -0.04531662 -0.07335192 0.12644464 -0.24633995 -0.13310727
-0.35148677 0.09623326 -0.05539628 -0.20787686 -0.1320907 -0.07068578 -0.05348558 0.12349792
0.07802474 -0.17216994 -0.21620679 -0.059105136 0.14356522 0.11775038 -0.042228952 0.113406636
9.2158137e-10 -0.053444922 0.00021481585 0.41174296 0.13656308 -0.18198569 -0.015892785 0.16612805
